finetune.pt (torch_old, 405286 bytes, 6 tensors)

weight f4 [35, 1, 30, 10]
-0.029008701 -0.06735217 -0.025607334 -0.03830719 0.01617344 -0.0048921485 0.07073874 -0.023594927
0.046972163 0.038789947 -0.06413059 0.046763793 -0.020432416 0.035723828 0.091987014 0.03529894
-0.014657762 0.029268276 -0.038219593 -0.06805703 0.0705907 -0.018390825 -0.04031352 0.056840606
0.055891804 0.00021048271 0.018841598 -0.025585134 -0.073906 -0.040261522 -0.09245028 -0.10526981
-0.05511434 -0.021932978 -0.12793982 -0.02632401 -0.009235048 -0.02170918 -0.0021466918 0.0862237
-0.10371877 -0.010978057 0.0363377 0.005294518 0.0075907195 0.003137573 0.014136528 0.025461953
0.0044040782 -0.010239345 -0.17271167 -0.15382731 -0.12799482 -0.1226052 -0.07284917 0.01976436
0.07249338 0.015863316 0.1118277 0.097761035 -0.01945779 -0.05641834 -0.02932716 0.014429518
0.011921647 0.017003406 0.075023025 0.039071657 0.0366328 -0.063911594 0.07450173 0.051993016
0.0575236 0.005050776 0.009993611 -0.015325516 -0.0030899954 -0.022949992 -0.14365463 -0.20134003
0.095566116 0.110897556 0.074265756 -0.04476446 0.041824043 -0.055883612 -0.031758633 -0.104793034
-0.07787924 -0.08588406 0.020019395 0.07281354 0.07044184 0.03718646 0.026853202 0.07228031
0.051413793 0.068600625 0.049994547 0.021797592 -0.08107503 -0.034137815 0.008882846 0.02008117
0.08878475 0.044881176 0.106780335 0.06403995 0.043906573 0.07464463 0.171626 0.19349545
0.10689518 0.14582461 0.060362708 0.07015604 -0.04900493 -0.083624125 -0.11962634 -0.111924
0.0740438 0.09842119 0.18102239 0.21587668 0.17353049 0.19465801 0.18080235 0.22951213
0.25127122 0.21992509 -0.07139944 -0.020347288 -0.047406964 -0.09751779 -0.12674248 -0.10843689
-0.13606364 0.032340515 0.051012125 0.009301793 0.09121317 0.043678194 0.014355625 0.047833804
0.093175866 0.05128977 0.07202722 0.109069176 0.088916145 0.036156863 0.11031564 0.053564288
0.11265876 0.09871067 -0.0068724626 0.0007116498 0.11786203 0.048671044 0.071415186 0.10933349
0.01775664 0.06998476 0.022627799 -0.085989 -0.01341406 0.070880555 -0.014805601 -0.079973646
-0.076809384 -0.05685729 -0.035526663 0.00018392885 -0.021643212 0.035318784 0.057067968 0.107121356
0.028319098 0.038599156 0.013511431 0.02152981 0.058123983 0.08600249 0.050777994 0.006837789
-0.023249935 -0.0051234 -0.0034471876 -0.091886714 -0.002221354 0.051275086 0.03692431 0.040613312
0.058489244 0.020615501 0.036988143 0.04283938 0.035099115 0.02585441 0.04561312 0.17157473
0.012098952 0.01818274 0.048425842 0.1196188 0.020428725 -0.046340417 -0.06407293 -0.011984827
-0.09447554 -0.06845171 0.04759962 0.049772844 0.046017755 0.07976169 0.057384953 -0.045787744
-0.09247407 -0.09767448 -0.06303414 -0.05889316 -0.0576701 -0.05390082 -0.06212454 -0.14023629
-0.14077106 -0.0879825 -0.09654523 0.012336234 0.023200177 0.054473687 0.03419688 -0.012768962
0.010507253 0.015370011 -0.008796143 -0.127551 -0.058271393 -0.10505974 -0.07380881 -0.03506756
0.06672542 -0.040913902 0.008488522 -0.026662849 -0.017244374 0.018892236 0.029143898 -0.033844564
-0.055215113 -0.07579491 0.0467686 0.057755876 -0.09459739 -0.07121793 -0.08323963 -0.006789802
00000000: a8a3 edbc efef 89bd 79c6 d1bc 00e8 1cbd
00000010: 297e 843c 514e a0bb 79df 903d 264a c1bc
00000020: e265 403d 35e2 1e3d e656 83bd 648b 3f3d
00000030: e261 a7bc 2653 123d b063 bc3d 9f95 103d
00000040: 1c27 70bc 06c4 ef3c 268c 1cbd 7c61 8bbd
00000050: db91 903d 5ba8 96bc ca1f 25bd b2d1 683d
00000060: ceee 643d 06b5 5c39 b259 9a3c ea97 d1bc
00000070: 075c 97bd 44e9 24bd 9356 bdbd b397 d7bd
00000080: 93bf 61bd caac b3bc a802 03be 73a5 d7bc
00000090: 994e 17bc 73d7 b1bc 83af 0cbb 0d96 b03d
000000a0: 826a d4bd 4fdd 33bc d7d6 143d a37d ad3b
000000b0: 92bb f83b bd9f 4d3b e59c 673c 9695 d03c
000000c0: 1650 903b edc2 27bc 54db 30be e884 1dbe
000000d0: 1311 03be 6f18 fbbd f231 95bd dee8 a13c
000000e0: 6977 943d c9f3 813c ec05 e53d f036 c83d
000000f0: f165 9fbc eb16 67bd 833f f0bc c969 6c3c
00000100: 0353 433c ba4a 8b3c aca5 993d 9a09 203d
00000110: 460c 163d 15e4 82bd 5d94 983d a1f6 543d
00000120: de9d 6b3d fb80 a53b 3ebc 233c e017 7bbc
00000130: 8581 4abb 9f01 bcbc 331a 13be 152c 4ebe
00000140: 2bb8 c33d 421e e33d a518 983d f05a 37bd
00000150: b04f 2b3d 37e6 64bd 5715 02bd bb9d d6bd
00000160: 277f 9fbd fbe3 afbd b7ff a33c 441f 953d
00000170: d043 903d d450 183d 3ffb db3c b307 943d
00000180: 4597 523d 7c7e 8c3d 15c7 4c3d dd90 b23c
00000190: aa0a a6bd 18d4 0bbd 5b89 113c 4481 a43c
000001a0: c7d4 b53d 53d5 373d a6af da3d 6127 833d
000001b0: 61d7 333d 49df 983d babe 2f3e ac23 463e
000001c0: dceb da3d 0c53 153e e33e 773d f8ad 8f3d
000001d0: 65b9 48bd 2043 abbd a8fe f4bd 6938 e5bd
000001e0: 47a4 973d 0d91 c93d ef5d 393e c70e 5d3e
000001f0: fab1 313e 6e54 473e 4024 393e 3a05 6b3e
00000200: 9fa6 803e 0b34 613e df39 92bd 5baf a6bc
00000210: ce2d 42bd 68b7 c7bd c8c8 01be 2914 debd
00000220: 4454 0bbe 7d77 043d 17f2 503d 8c66 183c
00000230: f8cd ba3d e8e7 323d db33 6b3c 61ed 433d
00000240: fdd2 be3d 3915 523d 0283 933d a95f df3d
00000250: ab19 b63d 3819 143d 2bed e13d 3a66 5b3d
00000260: a3b9 e63d d228 ca3d 6532 e1bb 028e 3a3a
00000270: a661 f13d 4a5b 473d 2042 923d 3dea df3d
00000280: 6076 913c 2b54 8f3d ef5d b93c 001b b0bd
00000290: a5c6 5bbc d329 913d 3193 72bc 39c9 a3bd
000002a0: 3d4e 9dbd 31e3 68bd 6884 11bd 06dd 4039
000002b0: 1b4d b1bc 6eaa 103d 1ac0 693d 7162 db3d
000002c0: 74fd e73c 261a 1e3d 0d5f 5d3c 495f b03c
000002d0: 6a13 6e3d 1322 b03d 96fc 4f3d 880f e03b
000002e0: a676 bebc 32e2 a7bb 36ea 61bb 1a2f bcbd
000002f0: 2394 11bb d305 523d f23d 173d 255a 263d
00000300: 6b92 6f3d d7e1 a83c e180 173d 5978 2f3d
00000310: 17c4 0f3d a1cc d33c d3d4 3a3d 49b1 2f3e
00000320: af3a 463c f8f3 943c 2d5a 463d b4fa f43d
00000330: 245a a73c 73cf 3dbd ab38 83bd 025c 44bc
00000340: 647c c1bd 6930 8cbd d2f7 423d 9cde 4b3d
00000350: 1d7d 3c3d 195a a33d 7c0c 6b3d ee8b 3bbd
00000360: 0c63 bdbd 8f09 c8bd 0b18 81bd f439 71bd
00000370: 7c37 6cbd 1bc7 5cbd 4d76 7ebd 1a9a 0fbe
00000380: 4a26 10be 2b30 b4bd 81b9 c5bd ea1d 4a3c
00000390: 4c0e be3c cd1f 5f3d 0712 0c3d e934 51bc
000003a0: 9d26 2c3c 80d2 7b3c b31d 10bc bb9c 02be
000003b0: fcad 6ebd 9029 d7bd 1329 97bd 00a3 0fbd
000003c0: 56a7 883d 5695 27bd 7113 0b3c 0c6c dabc
000003d0: 1344 8dbc e4c3 9a3c 2fbf ee3c 99a0 0abd
000003e0: 3e29 62bd 5d3a 9bbd 6e90 3f3d 6d91 6c3d
000003f0: 47bc c1bd b5da 91bd 8a79 aabd fd7c debb

bias f4 [35]
0.0024658246 -0.0017037619 -0.018560069 -0.124607466 -0.022064477 -0.08847094 -0.14638883 -0.03397356
-0.050177746 -0.05881136 -0.012646468 0.03326548 -0.06274266 -0.12871812 -0.11023853 -0.0493824
-0.057012897 -0.09207075 -0.090425394 0.029973835 0.037344713 -0.07113968 -0.044904042 -0.017675336
-0.08171795 -0.046821844 -0.018257989 -0.104998894 -0.065979816 -0.06601033 -0.04640328 -0.14130688
-0.08914431 -0.13301541 -0.09618153
00000000: ac99 213b c350 dfba 490b 98bc 3332 ffbd
00000010: 90c0 b4bc 4130 b5bd f4e6 15be dc27 0bbd
00000020: 2e87 4dbd 2ee4 70bd 2233 4fbc 6241 083d
00000030: 397f 80bd afce 03be bdc4 e1bd 3345 4abd
00000040: 5b86 69bd 978f bcbd f330 b9bd b08b f53c
00000050: c5f6 183d aeb1 91bd 4ded 37bd decb 90bc
00000060: be5b a7bd 43c8 3fbd c791 95bc a909 d7bd
00000070: 6d20 87bd 6d30 87bd 5e11 3ebd c0b2 10be
00000080: 4b91 b6bd 3135 08be d2fa c4bd

weight f4 [70, 1, 30, 40]
-0.0075517558 0.025000155 -0.020687759 0.018809166 -0.019062478 0.014220667 -0.015730115 -0.021704989
-0.008493016 -0.015792154 0.010168196 -0.042192556 -0.01497326 -0.06148535 -0.027583968 -0.03924733
-0.072260514 -0.042696137 -0.0076584816 -0.009243693 -0.043533735 -0.043948356 -0.005951587 -0.022523856
0.0057361685 0.0041620345 0.044450596 0.05023176 0.0374819 0.070019186 0.061167244 0.017442018
0.01786998 -0.0015534338 0.009225393 -0.0049878876 -0.022412343 -0.05236206 -0.014281622 -0.06625286
-0.0021396223 -0.031206114 -0.012259065 0.0010742488 -0.019214148 0.024832265 0.01444033 0.039781645
0.010352795 -0.0041665197 0.060017984 0.07173855 0.054002464 0.016219156 0.007322864 -0.03361636
-0.04601629 -0.06287176 -0.026086314 -0.06869437 -0.04529057 -0.045298655 -0.02297967 -0.054682724
-0.03512143 -0.05764841 0.0077701886 0.0403775 0.097224064 0.101125546 0.09999161 0.11427899
0.11219695 0.092045434 0.082471274 0.06735847 -0.0075483783 -0.030151641 -0.0826985 -0.09196859
-0.09916535 -0.038798697 -0.05238432 -0.039041776 -0.058654837 0.008171052 0.0007777005 -0.018851273
-0.03097108 -0.034534793 -0.007229695 0.009230669 0.0050124573 -0.006917417 0.028551264 0.05765436
0.11216776 0.07190013 0.07866251 0.06645221 0.12177792 0.116772175 0.08052241 0.0657247
0.05645074 0.06467426 0.020840408 -0.025674881 -0.003639782 -0.023064582 -0.10143113 -0.09741566
-0.06251544 -0.06214242 -0.03160801 -0.025070619 -0.04181797 -0.033779606 0.016153885 -0.013071289
0.09611756 0.11536978 0.024236646 -0.02714146 -0.06427709 -0.07426613 -0.12807114 -0.1418226
-0.16031799 -0.17231962 -0.1330729 -0.14535838 -0.10481843 -0.099219754 -0.06337162 -0.03945245
-0.0014712759 0.024179861 0.03537199 0.07079718 0.040562764 0.06853139 0.07580582 0.049519237
0.043265216 0.0065169437 0.003867982 -0.0042102872 -0.004424601 -0.050435323 -0.0277239 0.00087791175
-0.04244995 -0.041298788 -0.014645896 -0.011036988 -0.02223353 0.005587542 0.03767198 0.05214827
0.057695564 0.041887313 0.03875341 0.048863243 0.054750882 0.058743365 0.03736371 0.011349983
0.028464507 0.04146066 0.03809436 0.003435354 0.050590813 0.018121539 0.07003015 0.009571709
0.0036675972 -0.024504824 -0.016003063 0.0020437737 -0.057247918 -0.05365569 -0.018097881 0.028982224
0.021010853 0.07252569 0.103607155 0.08758253 0.07941897 0.10884286 0.12995118 0.14117928
0.09247835 0.09237599 0.12910104 0.13900138 0.12580547 0.11269961 0.115614526 0.07521017
-0.09077015 -0.12589945 -0.054209244 0.0057602585 0.12232695 0.13327013 0.12739822 0.12260212
0.09063459 0.060983058 0.05091768 0.038163558 0.09059873 0.09157959 0.078980386 0.056457218
0.040802125 0.022567738 0.06799738 0.0980307 0.118355885 0.07277721 0.06381918 0.077818
0.08683053 0.05226396 0.02515938 0.0074132313 -0.020098738 -0.023305442 0.019991439 0.045617297
0.037500985 0.047335345 0.047300503 -0.022779424 -0.021234421 -0.035035092 0.0038365368 0.0010632825
0.06753244 0.046865795 0.046847284 0.0039845123 0.037464637 0.065059945 0.022646613 0.046278946
0.032425154 0.045244727 0.07658963 0.056918584 0.06287783 0.10770856 0.11968408 0.13303238
00000000: b874 f7bb 20cd cc3c 6079 a9bc ae15 9a3c
00000010: ea28 9cbc cdfd 683c 71dc 80bc a9ce b1bc
00000020: 4a26 0bbc 8c5e 81bc 8198 263c 1ad2 2cbd
00000030: 6852 75bc 10d8 7bbd c6f7 e1bc cfc1 20bd
00000040: 52fd 93bd 25e2 2ebd 00f4 fabb dc72 17bc
00000050: 6e50 32bd 3103 34bd 8805 c3bb f383 b8bc
00000060: 78f6 bb3b ad61 883b d411 363d d1bf 4d3d
00000070: 9f86 193d 3866 8f3d 818a 7a3d 90e2 8e3c
00000080: 1064 923c 979c cbba 1a26 173c 6f71 a3bb
00000090: 179a b7bc 9979 56bd 77fd 69bc 94af 87bd
000000a0: e838 0cbb f7a3 ffbc 3fda 48bc cfcd 8c3a
000000b0: fd66 9dbc 096d cb3c 2297 6c3c 14f2 223d
000000c0: c59e 293c 4d87 88bb 6bd5 753d a9eb 923d
000000d0: b031 5d3d 09de 843c a3f4 ef3b 4fb1 09bd
000000e0: 947b 3cbd e9c2 80bd f7b2 d5bc a2af 8cbd
000000f0: 9b82 39bd 158b 39bd dc3f bcbc fefa 5fbd
00000100: 7ddb 0fbd bd20 6cbd 119d fe3b e162 253d
00000110: 691d c73d e91a cf3d 67c8 cc3d 1a0b ea3d
00000120: 84c7 e53d 5182 bc3d b3e6 a83d 3df3 893d
00000130: 6358 f7bb 9300 f7bc d55d a9bd 075a bcbd
00000140: 3417 cbbd 62eb 1ebd f190 56bd 45ea 1fbd
00000150: 0e40 70bd e0df 053c 99de 4b3a fc6d 9abc
00000160: 10b7 fdbc 5b74 0dbd 14e7 ecbb 3b3c 173c
00000170: 8a3f a43b 80ab e2bb 57e4 e93c fa26 6c3d
00000180: 36b8 e53d 6040 933d cf19 a13d 1918 883d
00000190: b466 f93d 4026 ef3d efe8 a43d ac9a 863d
000001a0: e438 673d f073 843d 81b9 aa3c 2154 d2bc
000001b0: 6989 6ebb eff1 bcbc 20bb cfbd dd81 c7bd
000001c0: 1808 80bd 0d89 7ebd 6777 01bd e660 cdbc
000001d0: 5249 2bbd 7c5c 0abd 2755 843c f628 56bc
000001e0: 49d9 c43d fe46 ec3d ee8b c63c c457 debc
000001f0: b5a3 83bd d718 98bd 1525 03be f239 11be
00000200: 662a 24be 8e74 30be 4344 08be d4d8 14be
00000210: 0cab d6bd ba33 cbbd fbc8 81bd e498 21bd
00000220: d4d7 c0ba d814 c63c 38e2 103d 1dfe 903d
00000230: 2425 263d 2f5a 8c3d 1540 9b3d afd4 4a3d
00000240: de36 313d 168c d53b f87d 7d3b 73f6 89bb
00000250: 3efc 90bb 4595 4ebd 3b1d e3bc a923 663a
00000260: 00e0 2dbd eb28 29bd 57f5 6fbc 7cd4 34bc
00000270: 1823 b6bc b317 b73b ef4d 1a3d 6d99 553d
00000280: 2f52 6c3d 0892 2b3d e5bb 1e3d d324 483d
00000290: 7642 603d e29c 703d b10a 193d 47f5 393c
000002a0: 662e e93c a7d2 293d d508 1c3d ad23 613b
000002b0: 5038 4f3d 9f73 943c f86b 8f3d a8d2 1c3c
000002c0: 125c 703b 57be c8bc db18 83bc d5f0 053b
000002d0: cb7c 6abd 12c6 5bbd 0242 94bc 216c ed3c
000002e0: f41e ac3c 5988 943d fd2f d43d 785e b33d
000002f0: 6aa6 a23d 01e9 de3d ec11 053e 4d91 103e
00000300: 4a65 bd3d 9f2f bd3d 1033 043e 6156 0e3e
00000310: 26d3 003e 0ecf e63d 4fc7 ec3d ca07 9a3d
00000320: b3e5 b9bd c9eb 00be 830a 5ebd 8dc0 bc3b
00000330: 8d86 fa3d f777 083e ae74 023e d216 fb3d
00000340: a19e b93d 5fc9 793d 0f8f 503d 6451 1c3d
00000350: d48b b93d 158e bb3d 78c0 a13d af3f 673d
00000360: 2120 273d fadf b83c 3642 8b3d 52c4 c83d
00000370: 9264 f23d 380c 953d a1b3 823d 0b5f 9f3d
00000380: 34d4 b13d bc12 563d 0b1b ce3c b1ea f23b
00000390: 1ca6 a4bc 0eeb bebc 16c5 a33c 34d9 3a3d
000003a0: a29a 193d b5e2 413d 2cbe 413d ea9b babc
000003b0: cff3 adbc f580 0fbd 686e 7b3b d75d 8b3a
000003c0: 734e 8a3d 59f6 3f3d f0e2 3f3d 8390 823b
000003d0: 8574 193d 263e 853d 6485 b93c fe8e 3d3d
000003e0: 3dd0 043d 8952 393d 06db 9c3d 7623 693d
000003f0: 17c6 803d 4e96 dc3d ed1c f53d a439 083e

bias f4 [70]
-0.09425211 -0.06769694 -0.048452757 -0.06356179 -0.05659379 -0.095653266 0.009645806 -0.06859844
-0.049929973 -0.12497094 -0.067105524 -0.03916628 -0.016124418 -0.06062694 -0.09628591 -0.08657919
-0.056419384 -0.05846843 -0.0656262 -0.08083598 -0.016550563 -0.06760829 -0.029241284 -0.014007137
-0.052796744 -0.06302259 -0.08552861 -0.04707586 -0.10176111 -0.014341361 -0.04975227 -0.11350306
-0.06128759 -0.067690924 -0.06793749 -0.08449509 -0.057001866 -0.063527755 -0.063568525 -0.065472245
-0.034481384 -0.0037453286 -0.034836512 -0.052446265 0.0075625665 0.0018876875 -0.04157933 -0.053888444
-0.095434956 -0.028202819 -0.041863367 -0.0755783 -0.03625573 -0.06646054 -0.060495697 -0.050140217
-0.06974297 -0.1013678 -0.02732042 -0.08395337 -0.05505542 -0.07138913 -0.10905693 -0.05611113
-0.06863204 -0.08590677 -0.08546466 -0.017265892 -0.037936397 -0.11102446
00000000: 4007 c1bd b1a4 8abd 6676 46bd af2c 82bd
00000010: e4ce 67bd dce5 c3bd 7109 1e3c 577d 8cbd
00000020: 5f83 4cbd c4f0 ffbd 9f6e 89bd d26c 20bd
00000030: 5b17 84bc f453 78bd 8c31 c5bd 6e50 b1bd
00000040: 0318 67bd 987c 6fbd 0767 86bd 568d a5bd
00000050: 0c95 87bc 3776 8abd 6b8b efbc 317e 65bc
00000060: 6641 58bd fd11 81bd a029 afbd 9ed2 40bd
00000070: 2168 d0bd 07f8 6abc 09c9 4bbd 4b74 e8bd
00000080: b208 7bbd 8aa1 8abd d022 8bbd c30b adbd
00000090: ca7a 69bd d71a 82bd 3730 82bd 5016 86bd
000000a0: 5a3c 0dbd 3074 75bb bbb0 0ebd e5d1 56bd
000000b0: 68cf f73b 486c f73a 164f 2abd 21ba 5cbd
000000c0: 6773 c3bd 9909 e7bc ec78 2bbd ccc8 9abd
000000d0: e380 14bd 771c 88bd 56ca 77bd d45f 4dbd
000000e0: 67d5 8ebd ec99 cfbd 13cf dfbc bfef abbd
000000f0: cb81 61bd 7734 92bd 3d59 dfbd c9d4 65bd
00000100: f48e 8cbd e3ef afbd 1808 afbd 3371 8dbc
00000110: 3263 1bbd cb60 e3bd

weight f4 [14, 105]
0.08176135 0.075880684 0.07336419 0.06602197 0.08373677 -0.04461083 0.0818216 0.066607244
-0.032062545 -0.017918848 -0.024601802 0.03736291 -0.024364904 0.04671245 0.064331286 -0.0015652701
-0.06256491 0.040015914 0.0888403 -0.061849166 0.070053466 -0.06053363 -0.028036006 -0.020465545
-0.04960205 0.0076115727 0.045108356 0.07857155 -0.07812065 -0.073322415 0.09702756 0.07302485
-0.03825458 0.0024247617 -0.05171578 0.07442812 0.05308 -0.09151091 0.054519333 -0.06563845
0.036671273 0.08641871 0.060414217 -0.044836566 -0.020709276 0.024208792 0.050801985 -0.041945353
-0.00017465651 0.03648252 -0.027429968 -0.015576541 0.012712687 -0.014621779 0.017593801 -0.02616942
-0.06598993 -0.016828015 -0.031763874 -0.07215696 -0.0224206 0.021639027 0.033740573 0.08350309
0.07507924 -0.010549463 -0.059090212 0.018308863 -0.048357196 -0.07642236 -0.003768295 -0.015393056
0.06664171 0.029676013 0.09183445 0.07229509 -0.078290455 0.0074185804 -0.06961948 0.09749649
-0.0050332844 0.021601796 0.0732838 0.058441944 0.054875456 -0.097096264 -0.046023034 0.031843312
-0.07215876 -0.013028063 0.03564357 0.054443486 -0.039314892 0.0012882724 -0.074194394 -0.0013031885
-0.069886096 0.074789785 -0.022634566 0.062225007 -0.055686478 -0.076632276 0.07360724 0.04584635
-0.09245626 -0.083370864 0.06736428 -0.0620328 0.0023622587 0.0764652 -0.057183564 -0.046317052
-0.050389778 -0.09417992 0.021499753 0.05218058 0.0332912 -0.029403836 0.016576648 0.075896464
-0.056863885 -0.078239106 0.043763645 -0.026468232 0.08142067 0.058433674 -0.029703513 -0.054563623
0.00892207 0.02928903 0.013337962 -0.033429414 -0.08309853 0.091314666 -0.06824592 -0.06789911
-0.021847442 -0.07910007 -0.024694182 -0.052096177 0.076175295 -0.07282294 -0.01501143 0.042366542
-0.048482 -0.06122155 -0.04382537 -0.065419294 0.025433071 -0.07377663 -0.0034260154 0.026665047
0.05308955 0.053982727 -0.059068784 0.06966988 0.0066920966 -0.032670677 -0.035682138 0.011574827
-0.07069239 0.08171707 -0.01602146 0.0020403266 -0.076834485 0.06276425 -0.0026499704 -0.039791234
-0.09506937 -0.08336977 -0.003298439 -0.074143626 0.019617103 -0.005344227 0.035298534 -0.0047208965
-0.06779215 -0.08840983 0.092963554 0.0015382543 0.06899438 0.04478682 -0.06709103 -0.0357058
-0.07161389 -0.011454187 0.09294131 -0.06519476 -0.083279915 0.038308673 0.033527605 0.083374165
-0.09034629 -0.041183244 -0.017574012 0.007706538 0.031408377 0.04371188 0.036350735 -0.0923125
-0.03130322 0.07895423 -0.032258257 0.02108799 -0.0075957403 0.08061891 -0.074919835 0.059653617
-0.022523709 0.084242485 -0.009968661 0.083628975 0.0026418325 -0.018879559 -0.074044175 -0.03477873
0.061288424 -0.06376817 0.03815261 -0.056747008 -0.07327169 0.04394985 0.011286691 0.04680023
0.071893185 -0.020248458 0.08927508 0.023151727 0.041517135 -0.032363284 0.026156286 0.072750226
0.06906226 0.089104205 0.0894482 -0.09722572 -0.08123359 0.07869303 0.050569054 -0.04344413
0.022747478 0.013706712 -0.038164236 0.047691606 -0.06023522 0.07815335 -0.046291713 0.048770867
0.0053594913 -0.05176843 -0.038586657 -0.08946499 0.06734828 -0.0815295 0.04532862 -0.09832969
00000000: 7f72 a73d 5567 9b3d f73f 963d 8736 873d
00000010: 2f7e ab3d d8b9 36bd 1592 a73d 6169 883d
00000020: 0454 03bd 8cca 92bc b889 c9bc da09 193d
00000030: e898 c7bc 8e55 3f3d 1fc0 833d c029 cdba
00000040: 0822 80bd bae7 233d e7f1 b53d 8d55 7dbd
00000050: 3178 8f3d 1df2 77bd c4ab e5bc 5ca7 a7bc
00000060: 852b 4bbd 806a f93b 8ac3 383d 1fea a03d
00000070: b8fd 9fbd 102a 96bd 63b6 c63d 0d8e 953d
00000080: d6b0 1cbd c0e8 1e3b edd3 53bd c56d 983d
00000090: 6a6a 593d 126a bbbd aa4f 5f3d 746d 86bd
000000a0: 9e34 163d 4bfc b03d e674 773d 8ca6 37bd
000000b0: 80a6 a9bc 8451 c63c be15 503d e4ce 2bbd
000000c0: 0024 37b9 b26e 153d d0b4 e0bc c034 7fbc
000000d0: e048 503c 3090 6fbc e020 903c 4061 d6bc
000000e0: ba25 87bd e8da 89bc d61a 02bd 07c7 93bd
000000f0: 68ab b7bc 5444 b13c 8e33 0a3d ab03 ab3d
00000100: 25c3 993d a8d7 2cbc 9408 72bd 78fc 953c
00000110: 3212 46bd 5483 9cbd 80f5 76bb 2833 7cbc
00000120: 737b 883d 1c1b f33c b313 bc3d 730f 943d
00000130: bf56 a0bd 9017 f33b a894 8ebd 3dac c73d
00000140: 40ee a4bb 40f6 b03c d115 963d d260 6f3d
00000150: 16c5 603d 68da c6bd a682 3cbd 226e 023d
00000160: f9c7 93bd a873 55bc fefe 113d 2200 5f3d
00000170: a708 21bd 40db a83a 3bf3 97bd c0cf aaba
00000180: 7120 8fbd 632b 993d 206c b9bc a6df 7e3d
00000190: 8117 64bd 62f1 9cbd 65bf 963d 62c9 3b3d
000001a0: b559 bdbd 58be aabd 49f6 893d 1b16 7ebd
000001b0: 20d0 1a3b c999 9c3d 5039 6abd f3b6 3dbd
000001c0: 8365 4ebd 67e1 c0bd 4020 b03c 4ebb 553d
000001d0: 5a5c 083d 50e0 f0bc c0cb 873c 9b6f 9b3d
000001e0: 1bea 68bd d33b a0bd 8241 333d e8d3 d8bc
000001f0: e1bf a63d 2658 6f3d c854 f3bc 1b7e 5fbd
00000200: e02d 123c 8cef ef3c 7887 5a3c 48ed 08bd
00000210: 902f aabd 2f03 bb3d 84c4 8bbd b00e 8bbd
00000220: 68f9 b2bc 38ff a1bd 744b cabc cd62 55bd
00000230: cb01 9c3d 3224 95bd 80f2 75bc 8a88 2d3d
00000240: 1095 46bd 73c3 7abd 3b82 33bd 8dfa 85bd
00000250: 0459 d03c 3418 97bd 0087 60bb a870 da3c
00000260: 6e74 593d fe1c 5d3d 1cf2 71bd 15af 8e3d
00000270: 6049 db3b b0d1 05bd 6f27 12bd 58a4 3d3c
00000280: 2cc7 90bd 475b a73d 703f 83bc 00b7 053b
00000290: 665b 9dbd 8b8a 803d 20ab 2dbb 22fc 22bd
000002a0: bbb3 c2bd c5bd aabd a02a 58bb 9dd8 97bd
000002b0: 0cb4 a03c a01e afbb 3295 103d c0b1 9abb
000002c0: 9cd6 8abd 3710 b5bd ad63 be3d 409f c93a
000002d0: ed4c 8d3d 6272 373d 0667 89bd 3f40 12bd
000002e0: 4eaa 92bd 58aa 3bbc 0358 be3d d584 85bd
000002f0: a98e aabd 8ee9 1c3d 3e54 093d 13c0 aa3d
00000300: 7a07 b9bd c3af 28bd 60f7 8fbc 2087 fc3b
00000310: 12a6 003d 3a0b 333d 82e4 143d 560e bdbd
00000320: ce37 00bd c1b2 a13d 3c21 04bd b8c0 ac3c
00000330: b0e5 f8bb 871b a53d 926f 99bd 5a57 743d
00000340: a483 b8bc 5387 ac3d 9853 23bc ab45 ab3d
00000350: 9822 2d3b 4ea9 9abc 79a4 97bd 2474 0ebd
00000360: 9209 7b3d e398 82bd e945 1c3d 8d6f 68bd
00000370: 780f 96bd c204 343d d0eb 383c 99b1 3f3d
00000380: bc3c 933d 18e0 a5bc dad5 b63d b1a8 bd3c
00000390: df0d 2a3d 5d8f 04bd b545 d63c 12fe 943d
000003a0: 8470 8d3d 447c b63d 9e30 b73d 471e c7bd
000003b0: cc5d a6bd d029 a13d 7f21 4f3d 79f2 31bd
000003c0: eb58 ba3c 1e92 603c 1a52 1cbd 4658 433d
000003d0: 35b9 76bd dd0e a03d 619c 3dbd f6c3 473d
000003e0: ac9e af3b 220b 54bd 0b0d 1ebd 6c39 b7bd
000003f0: e5ed 893d f0f8 a6bd 81aa 393d 1461 c9bd

bias f4 [14]
0.07710651 0.028150313 0.008840209 -0.057617627 0.056454025 -0.02581015 -0.038905907 -0.032789957
0.06359794 -0.049704418 0.080028094 0.06692249 0.04215879 -0.034325797
00000000: 05ea 9d3d 7c9b e63c 86d6 103c 7600 6cbd
00000010: 563c 673d cf6f d3bc cd5b 1fbd c34e 06bd
00000020: a33f 823d dc96 4bbd c5e5 a33d a90e 893d
00000030: b2ae 2c3d 3599 0cbd
