pretrained_model.pt (torch_old, 404651 bytes, 6 tensors)

weight f4 [35, 1, 30, 10]
000000 3d e1 04 bd aa 39 18 3c 37 b7 62 3d c0 b8 e3 3c
       -0.032441366 0.009291092 0.05535051 0.027798057
000010 ac 4f 09 3d 89 e2 75 bc d7 65 1a bd 54 5d d3 3c
       0.033523247 -0.0150076235 -0.03769478 0.025801338
000020 fe ae 82 bd 44 f2 0a bb af 70 ec bc f0 d1 89 3a
       -0.06381033 -0.002120153 -0.028862325 0.0010514837
000030 47 e2 6d 3c d8 9b b5 3c 66 d5 17 bd ad d9 57 3d
       0.014519281 0.022169039 -0.037068747 0.052697826
000040 42 6c 20 bd 79 df 20 bd 90 b6 38 3d 9f cf 09 3d
       -0.039165743 -0.03927562 0.04509598 0.03364527
000050 8c 3e 33 3d cf 10 03 bd e3 8e 00 bd 55 52 0d bd
       0.04376082 -0.03199845 -0.031386267 -0.034502346
000060 c6 a7 2f bd 09 4d a3 3c 42 63 5f bd 90 39 f7 bb
       -0.04288461 0.019934194 -0.05453802 -0.007544704
000070 ad b4 55 3b 6d af 1c bd 8d 5f 8b ba 4c 72 cc bc
       0.0032608912 -0.038253237 -0.0010633335 -0.024956845
000080 62 52 39 bd 0d 5e 89 3b e6 77 9d 3c ff 45 f4 3c
       -0.045244582 0.00419212 0.019222211 0.029818533
000090 ad 5c 22 3d 99 21 ad bc c0 ce 8f bd f8 e7 a3 bd
       0.039639164 -0.021134185 -0.07021856 -0.08003229
0000a0 c8 91 5c bd 3a 55 c8 bc d0 9b 4a bd 62 16 0a 3d
       -0.053849965 -0.024454702 -0.049465 0.033712752
0000b0 9e 1f bc 3b 74 1b 0c 3d 0c 2d 7d bc 4b 48 ba bc
       0.0057410737 0.03420587 -0.015452635 -0.02273955
0000c0 49 1a 4e 3d d7 da 4f 3d db c2 a0 3d 07 3b 8e 3d
       0.050318036 0.05074581 0.07849666 0.06944852
0000d0 e0 21 a3 3d d5 d8 1f 3d f2 3b fe 3c cb 5a 1c 3d
       0.079654455 0.039025147 0.031034444 0.038172524
0000e0 09 73 97 3c 46 09 c1 3c d6 bc 91 3d f0 d3 fe 3b
       0.01848747 0.023563992 0.07116096 0.0077767298
0000f0 2b e3 8b 3c 70 9d 29 3d a9 9d 43 3c c0 8a ae 3c
       0.017076096 0.04140991 0.011939445 0.021306396
000100 23 75 b8 3c 1a 34 2b 3d 51 57 af bc 26 dc ef 3c
       0.022516793 0.041797735 -0.02140394 0.02927978
000110 d6 a4 bf bc 16 17 e1 bc 6c 93 62 3d 70 95 5e 3c
       -0.02339403 -0.027476829 0.055316374 0.013585433
000120 de bd ac bb 83 e8 68 bb f5 67 63 3a 7b 42 bb bb
       -0.0052716574 -0.0035538978 0.00086748536 -0.005714712
000130 47 4b 28 3c cf 17 65 bd ec 79 bb 3c b3 65 5f bd
       0.010271854 -0.05593091 0.022885285 -0.054540347
000140 86 76 b3 3c a2 f1 12 bc e2 be d4 bc 81 9b aa 3b
       0.021907102 -0.008968743 -0.025969926 0.005206526
000150 40 85 88 bd a4 0c 0e bd 80 8b 1f 3d 55 72 26 bc
       -0.066660404 -0.034680024 0.038951397 -0.010159095
000160 e9 5e 3d bd 56 a5 84 bd 48 f2 b4 3b 1e 97 8d bd
       -0.04623309 -0.06476848 0.0055220462 -0.06913589
000170 7d 53 16 bd ce 12 2f 3a 91 50 1d bd e1 00 df bc
       -0.036700714 0.00066785223 -0.038406912 -0.027222099
000180 12 6c 2e bd 2f 43 4e bd be 60 87 3c e3 cc 17 bd
       -0.042583533 -0.05035704 0.016525622 -0.03706063
000190 cd a2 ec bc 5a df 80 3d 71 6b 99 3d e4 5b 6f 3d
       -0.028886223 0.06292601 0.07491196 0.058437243
0001a0 46 24 8f 3d 5b 21 ae 3d 43 2c f6 bb a7 50 1c 3d
       0.069893405 0.08502456 -0.0075126006 0.038162854
0001b0 55 43 e2 bc 26 d8 34 bd 78 06 75 bd 01 b7 2a bd
       -0.027619997 -0.044151448 -0.059820622 -0.041678432
0001c0 40 e6 67 bb a0 9e d2 bb b0 e0 60 bd 52 66 24 3b
       -0.0035385042 -0.006427601 -0.05490178 0.0025085402
0001d0 fb c3 35 bd 2e 4d df bc 10 1c cc bc b7 e7 e7 bc
       -0.044376355 -0.027258482 -0.024915725 -0.028308732
0001e0 fc d0 b1 bd ff 2a ed bc e8 5c ac bd 12 85 59 3c
       -0.08682439 -0.028951166 -0.08416158 0.013276355
0001f0 2a 72 42 bd c1 19 b6 bd c5 f7 d0 bc 6a d5 8a bd
       -0.047472157 -0.08891631 -0.02550877 -0.06778987
000200 18 bd a0 3c d4 16 e9 bc 4c b5 86 3b 3d fd 9b bd
       0.019621417 -0.028453268 0.0041109677 -0.07616661
000210 7b 54 41 bd 71 49 5b 3c 99 5f 9c bc 1f 46 7e bd
       -0.047199707 0.013384209 -0.019088553 -0.06207859
000220 16 a8 88 bc 9b c6 8b bd 48 a3 90 ba e9 cd 65 bd
       -0.016681712 -0.0682499 -0.001103499 -0.056104574
000230 30 a4 9e 3c 44 5b 7e 3d e8 03 17 bd 3d 60 a9 bc
       0.0193654 0.062098756 -0.03686896 -0.020675773
000240 51 8a ab bc 2c 4e 6d 3c fa f9 be bc 07 62 5c 3d
       -0.020939978 0.01448397 -0.023312557 0.053804424
000250 db 58 d2 3c a4 4a 5b 3d 86 1a 31 3d 00 13 2c 3d
       0.025677135 0.05353798 0.043238185 0.042010307
000260 1b 49 93 3c 27 80 a7 3d 76 91 e4 3b a5 ac 0a 3d
       0.017979195 0.0817874 0.006975348 0.033856053
000270 2d da b9 3d 6a 17 bf 3a 5a cb bf 3d bb 8c 90 3d
       0.09074817 0.0014579121 0.09364958 0.07058092
000280 97 b6 90 bd 1d 54 15 bd 6f 44 20 bd 62 a6 58 bd
       -0.07066076 -0.03645717 -0.039127763 -0.05289305
000290 47 57 f9 bc c1 af 11 bd ea 90 63 bb 7c a0 d5 bc
       -0.030437125 -0.035568003 -0.0034723827 -0.026077501
0002a0 28 e3 08 bc c1 d4 32 bc 32 c9 c8 bc 9e 53 0a 3d
       -0.0083549395 -0.010914982 -0.02451 0.03377115
0002b0 80 24 84 bc 7a d6 20 3d 19 8c 73 bd ae 30 42 3c
       -0.016130686 0.03926704 -0.05945978 0.011852426
0002c0 20 be 3d bd 6e a9 9b bd a5 29 cf bc c2 0c 06 3d
       -0.046323895 -0.076006755 -0.025288412 0.03272701
0002d0 6c 30 13 bd c8 07 42 3c 49 43 dc 3c 90 ed 9f 3b
       -0.03593485 0.0118426755 0.026887553 0.0048806146
0002e0 40 51 fb 3c 59 fa ef bc 36 1b 41 bd 23 a4 2c bd
       0.030678391 -0.02929418 -0.04714509 -0.04214872
0002f0 f8 dc 1c 3d 00 b4 81 3d 00 9a c9 bb 0f 53 0a 3d
       0.03829667 0.063331604 -0.0061523914 0.033770617
000300 c2 93 c2 3c cb e6 60 3d 03 25 67 bb 4a 58 8d 3c
       0.023752097 0.0549076 -0.0035269863 0.017254014
000310 6f db 0b 3d b1 32 92 bc 0f 65 88 ba ef 72 16 3d
       0.034144815 -0.017846437 -0.0010406094 0.036730703
000320 e2 05 b3 3c ef 79 31 bd 8f 9f aa bd f9 dd 52 bd
       0.021853391 -0.043329176 -0.08331215 -0.05148122
000330 6f 7c 0d bd 87 3b ab bc d2 64 2d bd 0c fa 02 bd
       -0.034542497 -0.020902408 -0.042332478 -0.031976745
000340 f8 12 48 3d 5d 0d 6a bd 49 85 68 3d f3 fa 6b bd
       0.048846215 -0.05714165 0.056767736 -0.05761237
000350 bc 33 04 bd b6 e7 83 bd f5 40 0d 3d 58 a0 ca bc
       -0.0322759 -0.0644068 0.034485776 -0.024734661
000360 dd 72 77 3d ee d8 87 3d d8 fd 6e 3d 93 f4 62 3d
       0.060412277 0.06633173 0.058347553 0.055409025
000370 0e bc 69 bd 00 d1 ec bc e1 4a a5 3c cd 38 86 bd
       -0.05706411 -0.028908253 0.020177307 -0.06553803
000380 dc a2 85 bd cc c1 34 38 74 e2 03 bc 1b d2 cb 3c
       -0.065252036 4.309583e-05 -0.008049596 0.02488046
000390 3b 32 85 3c 16 19 71 bd 34 6c 16 bc 89 dc 97 bc
       0.016259303 -0.058861814 -0.009181071 -0.018537777
0003a0 03 23 50 bc 07 46 00 bc 0b bb c6 3c a2 98 3c 3d
       -0.01270366 -0.007829196 0.02425911 0.046044
0003b0 3e d7 65 3d f1 70 11 3d c3 7d 04 bd 37 c3 eb 3b
       0.056113474 0.0355081 -0.0323465 0.0071949023
0003c0 0d 2a 9c bb 17 98 90 bb 0d d5 5b 3a ac e3 3b bc
       -0.004765755 -0.004412662 0.0008385934 -0.011467855
0003d0 2b 89 fb bc 7f 0b 5d 3d 17 4b 7b 3d 21 cb 5b 3d
       -0.030705055 0.05396604 0.061350908 0.053660516
0003e0 7d e8 a4 3b b0 a5 29 3b f7 ff 56 bd 5a 43 57 3d
       0.0050325976 0.002588611 -0.0524902 0.052554466
0003f0 4e ed d9 3c 82 2e 30 bc 0d 4f 21 3d 94 fb 75 3c
       0.026602414 -0.010753276 0.03938203 0.015013594

bias f4 [35]
000000 18 d9 d2 3b 8b 51 d1 bc f1 de 77 3d 69 8b 8e 3c
       0.006434571 -0.025551578 0.060515348 0.01740046
000010 01 74 1e bc 2a f5 b6 bc a9 8b 4c 3d 4f 46 19 3d
       -0.009671212 -0.0223337 0.049937878 0.037420567
000020 e2 78 7b bd b3 66 9c 3b 11 bb 43 3c 55 1c f2 bc
       -0.06139458 0.004772985 0.011946456 -0.029554525
000030 1e 03 d3 bc 04 a9 91 bd cb 9c 28 bd 4f 35 80 bd
       -0.025758322 -0.07112315 -0.041165154 -0.06260168
000040 4f 75 43 bc d7 5f 6d bd 04 9c ab 3d 22 31 c9 bc
       -0.011929824 -0.057952728 0.08379367 -0.024559561
000050 91 f1 e9 bc ab e4 4a bd cf f2 c2 3c ad ec 62 bd
       -0.02855757 -0.04953448 0.02379742 -0.055401493
000060 a5 0e a1 bc ad 09 1f 3d 16 56 a2 3a f9 64 9c 3a
       -0.019660303 0.038827587 0.0012385275 0.0011931948
000070 02 85 4a bd da 03 eb bc 0f 04 04 3d 73 bf 16 3d
       -0.049443252 -0.02868836 0.032230433 0.036803674
000080 6a ef 4b bd a4 58 2c 3c c3 a4 e4 3c
       -0.04978887 0.01051918 0.027910596

weight f4 [70, 1, 30, 40]
000000 e4 36 85 bc e3 93 54 bb 7e e1 00 bd b4 be 85 bc
       -0.016261525 -0.003243678 -0.031465046 -0.016326286
000010 86 e7 c2 3b 6f 90 d8 bc 0d 61 b8 bc d6 cc df bc
       0.00594801 -0.026436059 -0.022507215 -0.027319353
000020 4b fa 02 bd 19 98 a3 ba 25 78 d3 bc d8 8b 06 bd
       -0.03197698 -0.0012481242 -0.025814125 -0.03284821
000030 2b f1 45 bc f0 08 9d bc 9c 68 49 3c 05 07 97 bc
       -0.012081425 -0.0191693 0.012293007 -0.018435964
000040 29 cb 08 3c fc 41 a9 bb fd cd df bc 3c b6 e6 bc
       0.008349218 -0.0051653367 -0.027319903 -0.028163068
000050 d4 65 d7 bc 64 ff 93 bc 57 a1 74 bd 39 30 57 bd
       -0.026293673 -0.018066116 -0.05972418 -0.052536223
000060 a5 86 56 bd d8 54 38 bb 52 cc 8e bc de 3a 08 bd
       -0.0523745 -0.0028126743 -0.017431412 -0.033259265
000070 65 c5 18 bb f5 64 a6 bc 5f ff 39 bd 2b 32 d1 bc
       -0.0023311016 -0.020311812 -0.045409556 -0.025536617
000080 0c f4 09 bc 72 db a0 bc 68 fc 2c bd 9f 0f 71 bd
       -0.008420002 -0.01963589 -0.0422329 -0.058852788
000090 da a2 68 bd f4 22 89 bd 82 66 b0 bc 4f 11 81 bd
       -0.056795932 -0.0669612 -0.021533255 -0.063021295
0000a0 79 64 ae 3c f8 f3 dd 3c 4e eb 84 bb 2e f5 64 3c
       0.021288143 0.027093872 -0.004056371 0.013974471
0000b0 77 52 69 3c 61 e5 19 bd 06 56 06 bd c0 85 a1 3b
       0.014240853 -0.03757227 -0.032796882 0.0049292743
0000c0 58 27 f2 bc 75 e5 cb 3b 44 b3 36 ba 07 d0 08 bd
       -0.029559776 0.006222422 -0.00069694617 -0.033401515
0000d0 8b 48 d8 bc ca 64 d3 3b cd ed e8 bb d4 7e b7 bb
       -0.026401779 0.006451224 -0.007108426 -0.005599836
0000e0 12 94 9d 3c b0 b5 d9 3c 77 53 a4 bb 38 38 b6 3b
       0.019235644 0.026575893 -0.0050148326 0.005560901
0000f0 34 c2 00 3b 79 c1 b8 3c ee d0 b2 bc 83 70 b0 bc
       0.0019647004 0.022553192 -0.021828141 -0.021538025
000100 37 b2 f1 3c c2 67 4d bb 99 b4 8f 39 0b c1 3a bc
       0.029503925 -0.0031342362 0.0002740964 -0.011398564
000110 81 ee 53 bc d5 98 85 3c 51 d4 38 3d 7c 4a 09 3d
       -0.012935282 0.016308228 0.045124356 0.0335183
000120 03 7a 05 bb 96 01 db bb 0c 31 01 3d ee 6a f8 3c
       -0.0020366914 -0.0066835387 0.031540915 0.030324426
000130 50 54 c3 3c 6c 5a c6 3c 14 d7 c9 bc 47 50 a8 3c
       0.023843914 0.024213038 -0.02463869 0.020546092
000140 a6 e8 16 bc fe a6 21 3c c0 27 d5 bc 81 de a6 3c
       -0.009210741 0.009866474 -0.02601993 0.02036977
000150 c5 f9 61 bb 00 67 e1 3b 71 86 b4 bc 50 77 36 bc
       -0.003448115 0.0068787336 -0.022036763 -0.011136845
000160 91 a9 2c 3c a2 ca ed bb ce 34 a7 3b 77 13 07 bc
       0.010538475 -0.0072568217 0.0051027304 -0.008244387
000170 24 cb e0 bc ec 3e 7f 3c e1 75 f7 bc 56 18 17 bd
       -0.027440615 0.015578967 -0.030207576 -0.036888443
000180 97 6c 1d bd 94 f7 6b bc 72 ce b8 bc 56 ac ad bc
       -0.038433637 -0.014402289 -0.022559378 -0.02120034
000190 58 d5 8c 3c d1 16 26 3d b8 5b 4a 3d 95 6b 1c 3c
       0.017191574 0.040549103 0.049403876 0.009547134
0001a0 34 42 3f 3d c8 29 f4 3c f6 c0 41 3d 6a f5 62 3d
       0.046693996 0.02980508 0.047303163 0.055409826
0001b0 57 ad 5b 3d 4f ec 40 3d 82 94 25 3d 8e 4b 47 3d
       0.053632107 0.04710036 0.04042483 0.04865604
0001c0 d6 7c 4d 3d 5a 8a 7b 3d e9 2a 1a 3d de 1c 8b 3d
       0.05016788 0.06141124 0.03763858 0.06792615
0001d0 f8 6f 7e 3d ef 1c a2 3d 3e 20 56 3d d6 20 8e 3d
       0.0621185 0.07915675 0.052276842 0.06939857
0001e0 63 a4 a4 bb 64 fd ef bb e2 d6 32 bc 8c 0f d3 bc
       -0.0050244792 -0.0073239077 -0.01091549 -0.02576425
0001f0 cf c2 3a bd 36 61 cb bc 2f 64 f6 bc c6 7b 30 bd
       -0.04559594 -0.024826627 -0.030077068 -0.04308679
000200 7b b8 1b bd c1 55 03 3c 88 89 e1 bc c8 2b c2 bb
       -0.03801773 0.008016051 -0.0275314 -0.0059256293
000210 7a d5 93 bc 39 db d9 3c 3e 72 5e 3c ba 00 13 3d
       -0.01804613 0.026593791 0.013577042 0.035889365
000220 b7 21 96 b9 0d 56 fa 3c c4 9a c6 3c 23 2d 25 3d
       -0.0002863535 0.03055861 0.02424372 0.04032625
000230 5f 95 d6 3c ba 74 3a 3d dd c2 b1 bb 8b 72 11 3c
       0.026194273 0.045521475 -0.005424841 0.008877407
000240 e4 1e d7 3b f9 d4 18 39 f9 d4 67 bc c7 cc bb bb
       0.0065649617 0.00014575188 -0.014149898 -0.0057311985
000250 69 0a 05 bd 42 de fd 39 22 5e 19 bc 72 57 d5 3a
       -0.03248063 0.00048421515 -0.009360822 0.0016276671
000260 89 f5 64 3b c3 57 a4 bc 4b 7e 24 bc 39 9c 03 bc
       0.003493639 -0.02006138 -0.010039876 -0.008032852
000270 b4 ca fc 3b ac 85 f9 3c 31 5e 0a bc 1f 74 9e ba
       0.007714594 0.030459248 -0.008445309 -0.001208905
000280 b1 4b 4b 3c cd d4 7f bb 83 53 7c bb f3 d7 52 bd
       0.012408183 -0.0039036751 -0.0038501925 -0.051475476
000290 4d 27 41 bd 78 45 31 bd 71 0f 4d bd d8 55 a2 bc
       -0.04715662 -0.04327914 -0.050063554 -0.019816324
0002a0 99 cd a4 bc 00 01 32 3b ce 35 ca 3a 0c ff a6 bb
       -0.020117568 0.002716124 0.0015427412 -0.005096322
0002b0 44 be 0c ba a7 f6 bd bc a9 97 86 3b de fb e3 3b
       -0.0005368928 -0.023188902 0.004107435 0.006957515
0002c0 09 c4 25 3c 71 0e cb bc 3f c2 f2 bc 8b a8 de bb
       0.010117539 -0.02478716 -0.02963364 -0.006794994
0002d0 e5 dc c3 bb ba 4a c0 3c 60 30 96 3c 0a bf 45 3b
       -0.0059772604 0.023473132 0.018333614 0.0030173683
0002e0 7f cf ec 3c 8b ac 69 3c ca 33 72 3c fa 27 ac bc
       0.028907536 0.014262329 0.014782855 -0.021015156
0002f0 7c 8c 4e 3a 5b 12 78 b9 68 bb 94 bc 50 c9 60 bd
       0.000787921 -0.00023657961 -0.018155769 -0.054879487
000300 83 0f 7e bd 3f 7e 61 bd 55 30 0d bd ae 13 84 bd
       -0.062026512 -0.05505204 -0.03446992 -0.06449066
000310 4f f8 8a bd 2d 04 f5 bc 2c 15 08 bd 1d ed 72 bd
       -0.06785642 -0.029909218 -0.033223316 -0.05930816
000320 05 98 61 bd 23 98 aa bc 51 a3 1f bc 0a 8a 50 bd
       -0.055076618 -0.020824498 -0.0097435275 -0.050912894
000330 41 0f 08 bd c2 19 5e 3b 11 51 8e 3c d6 f8 62 3c
       -0.033217672 0.0033889865 0.01737264 0.013853272
000340 90 0d d1 bb b1 54 1c 3d 18 0e 68 3d fc b8 2c 3d
       -0.0063797906 0.038166706 0.056654066 0.042168602
000350 65 e1 86 3d 8f 01 e6 3c 50 f6 c9 3a 38 2a 16 3d
       0.06585959 0.028076915 0.001540849 0.036661357
000360 48 ab fd 3c 4c 66 a4 bc 1c 1b b2 3c ba a2 21 3c
       0.030965462 -0.02006831 0.021741442 0.009865457
000370 b2 5b e2 3b 10 d3 27 3d 18 e2 b0 3c 1e e2 bf 3b
       0.0069079036 0.04097277 0.021592185 0.0058558127
000380 04 37 da ba 63 95 01 3b 1b 24 c9 3c a5 dd 3f bc
       -0.0016648476 0.001977288 0.02455335 -0.011710559
000390 26 90 78 bc 80 cd 5b 3b 07 31 0a bd 7e 7a a7 bc
       -0.015171086 0.0033539236 -0.033738162 -0.020444151
0003a0 f8 87 3a bd f8 c2 81 bc 8e 8c 49 bd 73 43 58 bd
       -0.045539826 -0.015840039 -0.04920631 -0.0527987
0003b0 cb d7 a3 bc ee 4a 5e bd 80 d4 3d bc e8 6c f9 bc
       -0.020000359 -0.054270677 -0.0115863085 -0.030447438
0003c0 85 44 09 bd 90 77 e5 bc 40 ba 3f bd f7 33 5b ba
       -0.03351261 -0.028011113 -0.04680848 -0.00083619304
0003d0 f8 4e 85 bc 25 17 a2 bc ab cc bd 3c f9 78 8d ba
       -0.016273007 -0.019786427 0.023168882 -0.0010793499
0003e0 cd e0 88 bb 84 12 a8 3c da a9 06 3d ee 40 09 3d
       -0.004177189 0.020516641 0.032876827 0.033509187
0003f0 6f e1 a6 3c d0 d0 ec 3c ff ea b2 3c 14 36 fa 3c
       0.020371167 0.028908163 0.02184057 0.030543365

bias f4 [70]
000000 09 b2 83 bc cf 38 d6 bc eb 3d b4 bc 11 66 b5 3c
       -0.016076105 -0.026150135 -0.022002181 0.022143396
000010 be 1d df 3c 7f e7 55 bb ca 70 94 bc bd d8 d1 3c
       0.027235862 -0.0032639203 -0.018120188 0.025616044
000020 2a 6e 3c 3d ac f0 08 bc 98 cf 94 3b 97 0c cc bc
       0.046003498 -0.008358162 0.0045413487 -0.024908347
000030 91 9f 24 bd 8b 6a 7e bc 4e 0a 86 bc 5f 32 88 bc
       -0.040191237 -0.0155283315 -0.016362336 -0.016625581
000040 28 a8 5d bd 6a 66 63 bc e2 2e 7b 3c 1d 52 7c bc
       -0.054115444 -0.013879398 0.015331002 -0.015400437
000050 4b 46 77 3c af 24 38 3c 2e 6b 5e bd 99 32 83 3c
       0.015092443 0.011239215 -0.054301433 0.016015338
000060 9f 0e 2c 3d 50 ad 28 bc 49 7d 0e bd 7f f8 3e 3c
       0.04200613 -0.010295227 -0.03478745 0.011655926
000070 e9 b2 33 bd 9f e9 b8 bb 3b 28 7e 3c f7 52 2a bc
       -0.043871794 -0.005643084 0.015512521 -0.010395757
000080 3d d1 ad bb 51 9a 03 bc 81 48 01 3c 02 a4 42 3b
       -0.005304484 -0.008032397 0.007890821 0.0029699807
000090 95 4b 1c bc 99 85 e4 bc 07 f0 9e 3c 73 01 8b 3b
       -0.009539505 -0.027895736 0.019401563 0.004242116
0000a0 b2 aa d9 bc c6 0b 2f bd c5 93 15 3c 4f aa de bc
       -0.026570652 -0.042735837 0.009129469 -0.027180819
0000b0 d2 ba 6e bc f4 ca 48 3c d4 d8 8a bc b9 38 b2 bb
       -0.014570909 0.012255419 -0.016949095 -0.005438891
0000c0 2a fa 22 bd 1c 8d d7 3a bf 85 d7 bc 6a 2c e1 bc
       -0.039789356 0.0016445252 -0.026308892 -0.027486999
0000d0 c6 8d d4 bc be 48 0e ba 88 d8 13 bd 46 ba 03 3c
       -0.02594651 -0.00054277095 -0.036095172 0.0080400165
0000e0 b9 a6 90 bc 13 61 12 3d bb ad d4 bb 8a 8b 37 bb
       -0.017657625 0.03573711 -0.006490437 -0.0028006756
0000f0 e1 ed a2 3c ab 07 c4 3c 03 3a 2e 3d 9e 47 08 bd
       0.01988882 0.023929438 0.042535793 -0.033271424
000100 e6 1d 64 bc 0e 80 21 3d 99 98 42 3c d0 4c 11 3a
       -0.013923144 0.039428763 0.011877202 0.0005542757
000110 ce fc 23 3d 29 00 33 bd
       0.040036015 -0.043701325

weight f4 [14, 105]
000000 60 b1 ae bd cd c4 4b bd 8a 20 19 bd 4e cb 89 3d
       -0.08529925 -0.04974823 -0.037384547 0.067282304
000010 d8 d5 96 3d cc 21 bc 3d cf fc 92 bd 13 a3 05 bd
       0.07365006 0.09186134 -0.07177126 -0.032626223
000020 15 55 8c 3d 1b 4e f1 bd cb 08 de 3c d7 b9 c4 bc
       0.068521656 -0.117824756 0.027103802 -0.024014397
000030 5f d4 ae bd d3 ca c5 3c 67 06 80 3d 1a b8 ae 3c
       -0.085366 0.024144566 0.06251221 0.02132802
000040 b0 b4 46 3d 45 80 a1 3d f5 4b c4 bd e2 cb 7f 3d
       0.04851216 0.078857936 -0.095848 0.062450297
000050 37 2e c7 3d d8 69 9f 3b 36 8d 81 3c cf 9e e6 bb
       0.09725612 0.0048649125 0.015814405 -0.0070379744
000060 da b6 f6 bc 7c db 46 3d ba 6f c6 3c e2 a4 98 bd
       -0.030116487 0.04854916 0.024223197 -0.07453324
000070 4a f2 a2 bd 70 eb c4 bd 12 b3 e5 bd 3c 6d c3 bd
       -0.07956369 -0.09615219 -0.112157956 -0.09542319
000080 cb 6c 93 bd 9d 19 57 3d 84 47 1f 3d 50 d1 40 3c
       -0.07198485 0.05251466 0.038886562 0.011768654
000090 d9 87 e1 3c a5 19 15 be c9 3e a1 3d a6 8d e7 bd
       0.027530598 -0.14560564 0.078733034 -0.11306314
0000a0 41 42 e7 bd 4c 22 41 3d 7f e0 2d 3d 45 57 ef bc
       -0.11291934 0.04715185 0.042450424 -0.029216418
0000b0 9b d3 93 bd cf c7 e4 bd 5d 2c 17 3d c1 5c ad bc
       -0.07218095 -0.11170923 0.036907542 -0.021162393
0000c0 6a 96 f4 ba d8 f6 8d 3d f5 7a fa bd ec ca b6 3d
       -0.001866055 0.06931847 -0.122304834 0.08925423
0000d0 b1 5c 2a be 68 d6 a4 bc 3e 18 2f bb 97 22 88 bc
       -0.16636921 -0.020121768 -0.002671733 -0.016618056
0000e0 f8 2e d4 3d 73 ab 1e 3d 4c f5 7f 3d 90 4d 8d bd
       0.10360521 0.038737725 0.062489793 -0.068995595
0000f0 92 86 bb 3c 5a fd d1 3d 62 44 33 3c 98 d7 bd 3d
       0.022891317 0.10253401 0.010941597 0.09269637
000100 30 6b 1e 3c bf c6 e0 bd c9 3a 06 3d cf 4b c7 3d
       0.00966911 -0.10975408 0.032770906 0.09731256
000110 62 9c 90 bc e6 aa a1 bd dd 59 5c bc c4 13 8a bd
       -0.017652694 -0.078939244 -0.013449159 -0.06742051
000120 9c 41 db 3d 68 66 aa bd e6 67 46 3d 6a 1a f6 bd
       0.10705873 -0.08320314 0.04843893 -0.12016757
000130 17 b6 68 3d 5a de c9 bd e3 67 90 3c 0e fc c3 bd
       0.05681428 -0.09856863 0.017627662 -0.0956956
000140 d4 0b 0f 3d f7 e7 5d bd 53 ec ae 3d 13 5f 51 3c
       0.03492339 -0.054176297 0.08541169 0.012779015
000150 c5 d0 b3 3d 39 4c bc 3d 54 53 ee 3d c8 45 e2 bd
       0.08780054 0.09194226 0.11636987 -0.11048466
000160 e4 49 5a 3a cc 26 0a 3d 50 83 4c bb 8a fc 7b 3d
       0.00083270506 0.033728406 -0.0031206198 0.061520137
000170 d7 2e c5 bd 6e e4 88 bd fa f8 08 bd 4e 85 e4 bb
       -0.096280746 -0.066841945 -0.033440568 -0.006973899
000180 0c 48 4b bb 8e f6 e2 bb 33 aa 4b bb 6a d6 55 bd
       -0.0031018285 -0.0069263643 -0.0031076788 -0.052206434
000190 a3 33 92 3d b4 6e 0d 3d 8b 48 88 bd a2 c0 ce 3c
       0.07138755 0.034529403 -0.066544615 0.025238339
0001a0 71 21 85 bc 00 38 96 bd fa 7f 3e 3c 26 16 ce 3c
       -0.016251298 -0.073349 0.011627192 0.025157046
0001b0 bc 3b fd 3d bf 68 73 3d 11 4c af 3b 71 a1 dc 3c
       0.12364909 0.059426066 0.005349644 0.02693245
0001c0 d7 ea b9 3c 33 89 9d bd a0 7b 5d bd 5e e8 cd bd
       0.022694988 -0.07692184 -0.054072976 -0.10054086
0001d0 76 ef 36 3d fc 74 d7 3d ea 8c 65 bd 2c dd 95 3d
       0.04466196 0.1052036 -0.05604259 0.07317576
0001e0 c4 d4 fa bc 28 12 da bc 11 9c 0a bd 55 30 cd bc
       -0.030619033 -0.026619986 -0.033840243 -0.02504746
0001f0 27 79 aa bd 00 8d 17 bd ee 39 ea 3d 3e c3 48 bd
       -0.08323889 -0.036999702 0.114368305 -0.049014322
000200 3b 83 63 bd 42 4c 9d 3d e8 8c bf bc 45 54 04 3d
       -0.055545073 0.07680561 -0.023382619 0.03230693
000210 2b 86 41 3d 47 0a 7a bd 25 aa d2 bc e4 cc c7 3c
       0.047247093 -0.061044957 -0.025715897 0.024389692
000220 aa 9b 5b bd 07 d2 9c bd 0d 6a 9e bd 55 0b 4e bc
       -0.05361525 -0.07657247 -0.07735071 -0.012575944
000230 00 0f 56 3d bc ab 7c 3b 2a 91 c4 bd 4b 2f 03 3e
       0.0522604 0.003855451 -0.09598 0.1281101
000240 ff 11 c9 bc 9a 19 a8 3d 5b a7 54 bd 87 ad a2 3d
       -0.024544714 0.08208008 -0.051917415 0.07943254
000250 ba 32 6a bd a0 88 a5 bd 9c 6e fb 3c d0 20 c1 bc
       -0.057177283 -0.080827 0.030692391 -0.023575217
000260 de cb ac 3c 90 df b1 3d 19 9d c5 3d 14 de 3c b9
       0.021093305 0.08685219 0.096491046 -0.00018011808
000270 32 ea 59 bd e5 39 73 bd 1d ec 4c 3c 5a c0 8c bd
       -0.05320186 -0.059381384 0.012507466 -0.06872626
000280 1b 14 b1 bc 6f 6c bf bd 1e da 97 bd 99 8c c4 3b
       -0.021616032 -0.09346854 -0.074146494 0.005998206
000290 f3 73 35 3c 86 2c e8 bc 20 98 f4 3d 71 df a8 3d
       0.011075008 -0.028341543 0.11943078 0.08245743
0002a0 ab 51 f8 bd 3c f6 09 bb 82 50 8a 3d c1 bb af bd
       -0.12124952 -0.0021051308 0.06753637 -0.08580733
0002b0 f1 52 ef 3a 9a ef 9e 3d 60 09 64 3a 39 63 fc 3d
       0.0018258971 0.07760544 0.0008698907 0.12323613
0002c0 a9 92 b6 bd 9a 80 22 bd ec 92 9c 3d ba a5 a5 bd
       -0.08914692 -0.039673425 0.076452106 -0.080882505
0002d0 ec 7b 42 bd 35 00 f8 bd 3c 6f 59 bd fe 9e 0a bc
       -0.047481462 -0.121094145 -0.053084597 -0.008460758
0002e0 b5 1b cf bd 34 ca 72 bd 7a ef c0 bd e7 ab cf 3d
       -0.101127066 -0.059274867 -0.094206765 0.1014021
0002f0 01 02 eb bd 7c 6e 8e 3d 3c fc 54 3d cc 45 6c 3d
       -0.114749916 0.06954667 0.051998362 0.05768375
000300 37 03 ae bc 65 70 e6 3d 10 2a 52 bd 2c 59 87 bc
       -0.021241767 0.11251906 -0.051309645 -0.016522013
000310 a2 6a 16 bd ac d2 1c bd 4c e0 cd bd 71 c2 0e bd
       -0.036722787 -0.03828685 -0.10052547 -0.034853403
000320 ea 54 58 3d d8 76 ff 3c 22 a0 a7 3d b5 de fe bc
       0.052815355 0.031184599 0.0818484 -0.031112054
000330 2a 73 52 3d 3e cb 92 3d f6 4a ac bb 4c c9 ac bd
       0.05137936 0.071676716 -0.0052579595 -0.08436832
000340 c1 0a 11 3e 67 59 9d bd 12 66 b4 3d 2d c3 15 bd
       0.14164259 -0.07683068 0.08808531 -0.036563087
000350 a0 86 50 3d c0 79 8d bd 80 43 a7 bc 55 ac eb bb
       0.05090964 -0.069079876 -0.020417929 -0.0071921744
000360 4a d2 91 bd 00 07 11 bc 2a 02 1a bd e0 ed 0b bc
       -0.071201876 -0.008851767 -0.03759972 -0.008540601
000370 12 0d 9a bd 32 0d b2 3d 08 ce e0 3d c7 03 67 bb
       -0.07522024 0.08693923 0.10976797 -0.0035250054
000380 c2 0f 83 bd d2 ec e1 3c d2 6f 6a bd bd f0 3a bd
       -0.0639949 0.027578745 -0.057235546 -0.045639742
000390 f0 1d b4 3d ac 3b 67 3d 40 91 45 3d 89 51 c2 3c
       0.087947726 0.056453392 0.048234224 0.02372052
0003a0 93 e7 d7 3c 46 89 e9 bd c9 29 11 3c 11 ee 20 3d
       0.02635554 -0.11403136 0.00886006 0.039289538
0003b0 f9 e1 8b 3c a6 b2 c8 bd 82 ad 49 3d 87 3b 50 bb
       0.017075526 -0.097996995 0.049237736 -0.0031773762
0003c0 d9 ab ca 3b 25 ff 82 3d 27 88 d1 bc b5 d2 2f bd
       0.0061850366 0.06396321 -0.025577618 -0.042925555
0003d0 ea 82 5d bd f1 2e b8 3d 4e f7 cf bd d9 25 aa bd
       -0.054079928 0.08993328 -0.101545915 -0.08308
0003e0 47 39 ee 3c b9 ed ad bd 97 cb 01 be 88 29 ba 3c
       0.029080046 -0.084926076 -0.1267532 0.022724882
0003f0 ae 60 a4 bd 4d c1 d8 3c 13 71 01 3e 0c 89 c9 bc
       -0.08026253 0.02645936 0.1264079 -0.024601482

bias f4 [14]
000000 88 e2 05 bd 3a 83 04 bd 83 fb 84 3d bc 48 46 3c
       -0.03268674 -0.03235171 0.064932846 0.012102302
000010 1d 15 26 bd b9 ea f7 3c c9 2d c7 bd 5e 7a e4 3a
       -0.04054748 0.030263292 -0.0972553 0.0017431488
000020 d0 f9 a2 bd 3b 5f 4a 3d 07 aa b0 bc 57 22 0c 3a
       -0.07957804 0.049407225 -0.02156545 0.0005345693
000030 d8 d0 2d bd 7a 5a ae ba
       -0.042435497 -0.0013302111
