pretrained_mlp.pt (torch_old, 370866 bytes, 2 tensors)

weight f4 [14, 6480]
0.012800772 0.019906653 0.00759032 0.005025702 0.015002687 0.017948195 0.016293507 0.0046902825
-0.004654334 0.012075034 -0.0023010757 0.015068487 0.022049574 0.0093526505 0.015748087 0.024010133
0.010863481 -0.003327029 0.015754439 0.004326938 0.020251255 0.017709631 0.019164352 -0.0031517427
0.010921947 -0.00016762856 0.0028894446 0.0058099735 0.010975573 0.0035072004 0.014339833 0.012264873
-0.0027426824 -0.0031104267 0.007645186 0.008504946 0.009541674 -0.0053111664 0.00459886 0.018999202
0.011198319 0.00017668931 0.015566126 0.0047043124 -0.003079896 0.019225148 0.0021879233 0.0037414306
0.0039462554 0.007728274 -0.00020205704 0.020292733 0.011535536 0.020607894 0.0149524165 0.011386879
-0.0012935156 -0.016223181 -0.0061054975 0.0019094136 -0.009856149 -0.013070748 0.013302518 -0.0060164956
0.009057971 -0.009811625 0.0010635382 0.0032728051 0.0015712932 0.0027553064 0.004346835 0.006768527
0.005137934 0.015505469 0.0064629707 0.002844821 0.010518535 0.008507215 0.017974088 -0.0027019212
-0.009516436 -0.006736829 0.0045947777 -0.010527535 -0.00809694 -0.011961757 -0.03334745 -0.0013236385
0.0013190472 0.002699403 0.0060611772 0.010525321 0.008209398 -0.007808521 0.0027099722 4.6264344e-05
0.0041249124 0.02111431 0.015822813 0.016084405 -0.0038988192 0.004391642 -0.006057176 0.0083752945
-0.0023049305 -0.000955729 0.018592533 0.009630311 0.0009782994 0.00541028 0.015304744 0.017925067
0.018685726 0.032863334 0.008448924 0.012124767 0.022498203 0.0133380545 0.02309665 0.028707376
0.018456219 0.014197787 -0.009344476 -0.011293113 -0.0036597147 -0.007930019 -0.009159232 0.012565951
0.00040940117 0.018654712 -0.0035979054 -0.009915234 -0.0026772378 -0.009152515 0.0009896286 -0.002543225
-0.012108424 0.003191779 0.0057013934 0.0068830363 -0.008825754 -0.0052406513 -0.0018840365 -0.0048164856
0.00347708 0.0076951175 0.005285814 0.009604608 -0.003814402 -0.007420317 0.008803078 0.0016394804
-0.0064505073 -0.004528219 -0.0013194537 -0.006483962 -0.012516861 -0.00010819503 0.005138413 0.005556375
-0.0073094475 -0.010598843 0.0061075403 0.0031285733 0.0049162917 -0.013746343 -0.0055207456 -0.01385623
0.009344083 -0.0061056055 0.0033597497 0.00039453924 -0.016267417 -0.005021398 -0.01928125 -0.018526154
-0.031789295 -0.018304197 -0.02732268 -0.019630775 -0.023034556 0.0009653663 0.00493905 -0.00864178
-0.0056763105 -0.014255103 -0.010257295 0.0022409605 -0.0048964666 -0.0037014494 -0.007695885 -0.013350451
-0.0035077666 -0.010522928 -0.014348843 -0.0044492753 -0.0012591201 -0.0077465964 -0.0008482307 -0.011178914
0.006785345 -0.012965205 -0.004423284 0.001802535 -0.0029307066 -0.0068634516 0.0018311307 0.005077834
-0.017768718 0.0006641839 -0.006897856 0.004937965 -0.01370921 0.006560978 0.009849164 -0.008441944
-0.014747309 -0.0078267725 -0.018501887 -0.006461724 -0.013784387 -0.030540615 -0.019317253 -0.027662706
-0.021893151 -0.009679206 -0.01605909 -0.011902619 -0.02945934 -0.017786678 -0.012677476 -0.010115503
-0.013509266 -0.031131608 -0.033094388 -0.0012107894 0.009798475 -0.0053708013 0.005396094 -0.0026791452
0.0044690883 0.00062904094 -0.004238903 -0.005900858 0.0003404559 0.0029134615 -0.011896806 -0.010140878
-0.007603671 -0.00046432373 -0.008151978 -0.008969145 -0.015905635 -0.012620675 -0.007675546 -0.0051520336
00000000: 54ba 513c 4713 a33c 38b8 f83b a5ae a43b
00000010: d5cd 753c 1808 933c f679 853c f1b0 993b
00000020: 6283 98bb 5dd6 453c a5cd 16bb d1e1 763c
00000030: 4fa1 b43c dc3b 193c 2202 813c e6b0 c43c
00000040: befc 313c 490a 5abb 740f 813c fdc8 8d3b
00000050: f6e5 a53c ca13 913c 8ffe 9c3c 788d 4ebb
00000060: f7f1 323c 73c5 2fb9 d65c 3d3b 9761 be3b
00000070: e4d2 333c 0fd9 653b 9ef1 6a3c 9bf2 483c
00000080: 93be 33bb 4dd8 4bbb 7884 fa3b 5458 0b3c
00000090: ae54 1c3c 4b09 aebb 09b2 963b 37a4 9b3c
000000a0: 2779 373c ad45 3939 1109 7f3c a226 9a3b
000000b0: 15d8 49bb 0f7e 9d3c 4363 0f3b ca32 753b
000000c0: 974f 813b 763d fd3b 46df 53b9 f23c a63c
000000d0: 8bff 3c3c e3d1 a83c fbfa 743c 0890 3a3c
000000e0: 2e8b a9ba 7ae6 84bc a010 c8bb 4a45 fa3a
000000f0: af7b 21bc b126 56bc cef2 593c 0626 c5bb
00000100: e267 143c f0c0 20bc 6c66 8b3a 8f7c 563b
00000110: daf3 cd3a 5f92 343b e56f 8e3b 85ca dd3b
00000120: 1d5c a83b a70a 7e3c 54c7 d33b 2d70 3a3b
00000130: ef55 2c3c d961 0b3c 653e 933c b712 31bb
00000140: d3ea 1bbc 9ec0 dcbb ca8f 963b af7b 2cbc
00000150: 07a9 04bc 3ffb 43bc 5697 08bd f07d adba
00000160: e1e3 ac3a 78e8 303b d79c c63b 6572 2c3c
00000170: b680 063c 9fde ffbb ca99 313b f60b 4238
00000180: 462a 873b ebf7 ac3c d89e 813c 71c3 833c
00000190: 5583 7fbb c3e7 8f3b 467b c6bb 8838 093c
000001a0: 510e 17bb e389 7aba 5e4f 983c 74c8 1d3c
000001b0: 483a 803a b848 b13b c0c0 7a3c 97d7 923c
000001c0: cf12 993c b49b 063d 5b6d 0a3c f5a6 463c
000001d0: 274e b83c db87 5a3c 3035 bd3c bb2b eb3c
000001e0: 7f31 973c d69d 683c 9319 19bc c006 39bc
000001f0: d3d7 6fbb e9ec 01bc 9a10 16bc 6be1 4d3c
00000200: e5a4 d639 c4d1 983c d6ca 6bbb 8173 22bc
00000210: 9974 2fbb 6ef4 15bc 6db6 813a 3cac 26bb
00000220: 6962 46bc 2a2d 513b c1d2 ba3b 188b e13b
00000230: e599 10bc c5b9 abbb c6f1 f6ba 9cd3 9dbb
00000240: b9df 633b 5327 fc3b 9f34 ad3b a55c 1d3c
00000250: 0cfb 79bb 2126 f3bb c93a 103c d5e3 d63a
00000260: c75e d3bb 7461 94bb 85f1 acba 6a77 d4bb
00000270: 8513 4dbc c4e6 e2b8 2260 a83b 4012 b63b
00000280: 1784 efbb c5a6 2dbc c321 c83b c008 4d3b
00000290: d818 a13b 5738 61bc 5fe7 b4bb 3e05 63bc
000002a0: ed17 193c 8811 c8bb 3f2f 5c3b 29da ce39
000002b0: 3f43 85bc 8a8a a4bb b6f3 9dbc 29c4 97bc
000002c0: 7e35 02bd aff2 95bc d0d3 dfbc b8d0 a0bc
000002d0: f7b2 bcbc a310 7d3a c1d7 a13b 4196 0dbc
000002e0: 5800 babb 3c8e 69bc 370e 28bc 14dd 123b
000002f0: 8a72 a0bb 0494 72bb c32d fcbb dabb 5abc
00000300: 8fe2 65bb 5c68 2cbc 6917 6bbc 3acb 91bb
00000310: 0f09 a5ba 29d7 fdbb cc5b 5eba c427 37bc
00000320: 9957 de3b 036c 54bc 32f1 90bb 0a43 ec3a
00000330: 1911 40bb cee6 e0bb 8d02 f03a f563 a63b
00000340: b48f 91bc a11c 2e3a 6907 e2bb a7ce a13b
00000350: 989c 60bc 79fd d63b 635e 213c 1450 0abc
00000360: b29e 71bc dd3b 00bc 4591 97bc dfbc d3bb
00000370: e9d7 61bc 5030 fabc 373f 9ebc e69c e2bc
00000380: 4459 b3bc 8895 1ebc 5a8e 83bc 3403 43bc
00000390: b754 f1bc 5eb5 91bc 30b5 4fbc 7fbb 25bc
000003a0: f855 5dbc b707 ffbc fb8d 07bd 5ab3 9eba
000003b0: c889 203c 8cfd afbb b8d1 b03b 9994 2fbb
000003c0: 6e71 923b 39e6 243a 7fe6 8abb fc5b c1bb
000003d0: 387f b239 c6ef 3e3b d2ea 42bc ed25 26bc
000003e0: 3728 f9bb 7a70 f3b9 e08f 05bc 52f3 12bc
000003f0: 894c 82bc f3c6 4ebc 2683 fbbb 64d2 a8bb

bias f4 [14]
-0.024034753 0.020428061 -0.013655873 -0.0067500668 -0.034284323 0.06829139 0.003938102 0.010338675
-0.01033794 0.02562144 -0.011378948 -0.039821725 -0.03955903 0.0094697075
00000000: 88e4 c4bc c058 a73c e2bc 5fbc aa2f ddbb
00000010: b86d 0cbd 5bdc 8b3d 320b 813b 8c63 293c
00000020: 7760 29bc 0ee4 d13c c46e 3abc 1b1c 23bd
00000030: a608 22bd d526 1b3c
