pretrained_rnn.pt (torch_old, 177867 bytes, 6 tensors)

weight_ih_l0 f4 [300, 30]
0	0xbea35a0f	-0.31904647
1	0x3efdc412	0.49563652
2	0x3ea23306	0.31679553
3	0xbf04c040	-0.5185585
4	0xbe384907	-0.17996608
5	0xbf3f7687	-0.74790233
6	0xbd10607b	-0.03524826
7	0x3f1ab9a3	0.6043951
8	0x3ea13e6f	0.31492946
9	0x3f343274	0.70389485
10	0x3e89e042	0.26928908
11	0x3e82d17a	0.25550443
12	0x3eb1e582	0.34745413
13	0x3e7c0e13	0.24614744
14	0x3ed65c61	0.41867355
15	0x3deb07f2	0.11476125
16	0xbd5af3de	-0.053455226
17	0x3e8a755b	0.2704266
18	0x3f0dc42f	0.5537748
19	0x3eb16250	0.3464532
20	0x3ec76004	0.38940442
21	0x3edd96ea	0.432792
22	0x3ca4a274	0.020096995
23	0xbd586344	-0.052829042
24	0x3f0a8c5d	0.5412043
25	0xbebac40e	-0.36477703
26	0xbe8f86f4	-0.2803265
27	0x3d8b1e6c	0.06792912
28	0xbdba73dc	-0.0910413
29	0xbdccf294	-0.100072056
30	0x3e797778	0.2436198
31	0xbe2e975d	-0.17049928
32	0xbeef2de5	-0.46714702
33	0xbebe0436	-0.37112588
34	0xbc3719de	-0.011175601
35	0xbdffccbd	-0.124902226
36	0x3f0e7f76	0.5566324
37	0x3f58a593	0.84627646
38	0xbeb6457d	-0.3559989
39	0xbf28be69	-0.6591554
40	0xbc67e4c5	-0.014153664
41	0x3ce96e90	0.028495103
42	0xbe277ac8	-0.16355431
43	0x3e13b3b3	0.14424019
44	0xbed9585e	-0.4245023
45	0xbe1c9ab0	-0.15293384
46	0xbe3848b9	-0.17996491
47	0x3e3594b8	0.17732513
48	0x3e798772	0.24368075
49	0xbf876b5b	-1.0579637
50	0xbe712065	-0.23547514
51	0xbeebc5dc	-0.46049392
52	0x3defbe8c	0.11706266
53	0xbd4d9dd2	-0.050199337
54	0x3e340ba5	0.17582567
55	0x3eeb07d8	0.45904422
56	0xbe6c3967	-0.23068772
57	0x3ebab3c3	0.36465272
58	0x3ee2eaae	0.4431967
59	0xbdfdcfd1	-0.123931535
60	0xbd472fb8	-0.048629493
61	0xbe57cbfe	-0.2107391
62	0xbe73055e	-0.23732516
63	0x3e4571eb	0.19281738
64	0x3e8c50cc	0.27405393
65	0x3f296a74	0.6617806
66	0x3e03259a	0.12807313
67	0xbe1ce2ac	-0.15320843
68	0x3d99d272	0.075108424
69	0xbe84cdc1	-0.25938228
70	0xbeebf0f7	-0.4608228
71	0xbf9e9f7d	-1.2392422
72	0x3eccebd6	0.4002368
73	0xbdc06a73	-0.093953036
74	0xbf5d14e9	-0.8636003
75	0xbf23fb49	-0.64055306
76	0xbd947d60	-0.07250476
77	0x3e06345f	0.13105915
78	0x3d0604c5	0.032719392
79	0xbd82dd23	-0.06389835
80	0xbe4dc976	-0.20096382
81	0xbeb58b0a	-0.3545764
82	0xbe334fdb	-0.17510931
83	0xbed83416	-0.42227238
84	0xbe8a7e51	-0.27049497
85	0xbea239cf	-0.3168473
86	0xbe28d30c	-0.16486758
87	0xbdc3fc0b	-0.09569558
88	0xbe185c1e	-0.1487889
89	0xbe4c8acc	-0.19974822
90	0x3ed8d557	0.42350265
91	0xbe69aac2	-0.22819045
92	0xbed2caf3	-0.41170463
93	0xbf15a443	-0.5845377
94	0xbefbd10e	-0.49182934
95	0xbe4b8803	-0.19876103
96	0x3e8a3a74	0.2699772
97	0xbec21643	-0.3790761
98	0xbe66dd09	-0.22545256
99	0x3f08470d	0.53233415
100	0xbec99a58	-0.39375567
101	0x3daa0e42	0.08303501
102	0xbe6bb7c2	-0.23019317
103	0x3e7371d0	0.23773885
104	0x3f057d25	0.5214408
105	0xbf07a504	-0.5298617
106	0x3ea65beb	0.32492003
107	0xbc20ffc6	-0.009826606
108	0xbdd30b42	-0.10304882
109	0xbe693906	-0.22775659
110	0xbe82651c	-0.25467765
111	0x3dd2e448	0.102974474
112	0xbe2ac265	-0.16675718
113	0xbf097a0a	-0.5370184
114	0xbf0f16c4	-0.5589411
115	0xbe4ff818	-0.20309484
116	0x3e9882d0	0.29787302
117	0xbd2f6fd5	-0.04283126
118	0xbea71e72	-0.32640415
119	0x3f25f372	0.64824593
120	0x3e5cd8a4	0.21567017
121	0x3ed94405	0.42434707
122	0x3f7838d8	0.96961737
123	0xbe0711ad	-0.13190337
124	0xbe701f65	-0.23449476
125	0x3e99aad2	0.30013138
126	0x3e3fe703	0.18740468
127	0x3ebd9238	0.3702562
128	0xbdc55b38	-0.09636539
129	0xbd453e66	-0.04815521
130	0xbebe2568	-0.37137914
131	0x3ddd4d2f	0.10805737
132	0xbc993b55	-0.01870505
133	0xbf24a6d0	-0.64317036
134	0x3e7b9b99	0.24571075
135	0xbe8cdbce	-0.27511448
136	0xbee45055	-0.44592538
137	0x3e1f2f3d	0.15545364
138	0xbdb088a0	-0.08619809
139	0xbe056ea0	-0.13030481
140	0xbea4f2c6	-0.3221647
141	0xbef7dee5	-0.48412243
142	0x3e0d9346	0.13825712
143	0x3ea12d80	0.31480026
144	0x3f1dd25e	0.6164912
145	0xbef7040a	-0.4824527
146	0xbed9525b	-0.42445645
147	0xbe61acad	-0.22038527
148	0x3eb6446b	0.35599074
149	0x3f393b7f	0.7235641
150	0xbe60a1e1	-0.21936752
151	0xbdbf4c11	-0.093406804
152	0x3f6bc50b	0.9209754
153	0x3daf468f	0.0855838
154	0x3f281e1c	0.65670943
155	0x3e077eae	0.13231918
156	0x3f10ee94	0.5661404
157	0x3e601b83	0.21885495
158	0x3e6c576f	0.23080228
159	0x3eae986a	0.34100658
160	0x3e81f3ef	0.2538142
161	0xbdcb8136	-0.099367544
162	0xbf3f12f0	-0.7463827
163	0xbc240b32	-0.010012435
164	0xbdf0d454	-0.117592484
165	0xbef74ee2	-0.4830237
166	0x3eae4055	0.34033456
167	0x3ed23047	0.41052458
168	0xbef35e48	-0.47532868
169	0x3ef6ac6b	0.4817842
170	0x3eaee494	0.34158766
171	0x3dec0853	0.11525025
172	0xbf18c0bb	-0.59669083
173	0xbdbd79a8	-0.0925172
174	0x3ef06993	0.46955547
175	0xbe60dfb6	-0.21960339
176	0x3d52569b	0.051352125
177	0x3e035662	0.12825921
178	0x3f39e279	0.72611195
179	0x3e00a53c	0.12563032
180	0x3dd3893f	0.10328912
181	0x3e91667d	0.28398505
182	0xbc7a99b3	-0.015295434
183	0x3e2bdd31	0.16783597
184	0x3e6c232b	0.2306029
185	0xbc5fb6b5	-0.013654401
186	0xbf224652	-0.6338855
187	0xbebebaee	-0.3725199
188	0x3f06a298	0.5259185
189	0xbf06ffff	-0.5273437
190	0xbead0708	-0.33794427
191	0x3e9c8351	0.30568936
192	0xbf108726	-0.5645622
193	0xbda60422	-0.08106257
194	0x3e04032b	0.12891833
195	0x3eddbf3b	0.4330996
196	0xbe87d2b7	-0.2652795
197	0xbf32c298	-0.69828176
198	0xbf46c46a	-0.77643454
199	0x3e09a107	0.13440333
200	0xbe84ffa4	-0.25976288
201	0xbec717d4	-0.38885367
202	0xbe82deef	-0.2556071
203	0xbf2f04b1	-0.68366534
204	0xbe67364f	-0.22579311
205	0xbe077cf7	-0.13231264
206	0xbe1729ad	-0.14761992
207	0x3e5fffa9	0.2187487
208	0xbed7ae34	-0.42125094
209	0xbf8fc943	-1.1233295
210	0xbc87f625	-0.016596863
211	0x3eb60ba3	0.35555753
212	0x3f0ce605	0.5503848
213	0xbe045418	-0.12922704
214	0xbf0125e9	-0.5044847
215	0xbdae13d2	-0.08499874
216	0x3eb8f773	0.3612629
217	0x3e4a5372	0.19758394
218	0xbe5dbcb7	-0.2165402
219	0x3ebfaff2	0.37438923
220	0xbe25574a	-0.1614658
221	0x3ef4b9e2	0.47798067
222	0x3dc254b3	0.09488811
223	0x3f04cba5	0.51873237
224	0x3f0bea98	0.54654837
225	0xbd92e286	-0.07172112
226	0x3f945f9d	1.1591679
227	0xbe3152c6	-0.17316732
228	0x3e1f037a	0.1552867
229	0x3f0fd600	0.56185913
230	0xbe9c68c5	-0.30548683
231	0xbedfe634	-0.4373032
232	0x3f042582	0.5161973
233	0x3dfbce7e	0.12295245
234	0x3f772d62	0.96553624
235	0x3f429631	0.76010424
236	0xbebe22c5	-0.37135902
237	0xbebc9b23	-0.3683711
238	0xbe8cf364	-0.27529442
239	0x3e24b674	0.16085225
240	0xbd921c2f	-0.07134282
241	0x3e22f83f	0.15915011
242	0xbe9d602c	-0.30737436
243	0xbe94b3b6	-0.2904336
244	0xbee7e571	-0.45292237
245	0xbe94a516	-0.290322
246	0xbe9db0f2	-0.3079906
247	0x3ed3bb5a	0.41353875
248	0xbe37a45e	-0.17933795
249	0xbe0538a0	-0.13009882
250	0x3f4ff826	0.8123802
251	0xbf15d716	-0.5853132
252	0xbf0107d0	-0.50402546
253	0x3ea15971	0.3151355
254	0xbd369a4c	-0.044580743
255	0x3ef184a8	0.4717152

weight_hh_l0 f4 [300, 100]
0	0xbe6315ce	-0.22176287
1	0xbe890cdd	-0.26767626
2	0x3cd46a20	0.02592951
3	0xbf4577c1	-0.77135855
4	0x3dc96229	0.09833176
5	0x3d60b362	0.054858573
6	0x3eb292fd	0.34877768
7	0x3e1a4e22	0.15068868
8	0x3eaa55ac	0.33268487
9	0x3ec49d11	0.38401082
10	0x3ddcacfe	0.10775183
11	0xbe493c1c	-0.19651836
12	0x3e82a8f0	0.25519514
13	0xbec2de09	-0.38060024
14	0x3eca3d29	0.39499786
15	0x3cb8253a	0.022478689
16	0xbe711199	-0.23541869
17	0x3d025d08	0.031827003
18	0x3dd802a2	0.10547377
19	0xbdf707ae	-0.12062012
20	0x3f1811b7	0.5940203
21	0x3dd2c55f	0.10291552
22	0xbe6bba2a	-0.23020235
23	0xbec800ea	-0.39063197
24	0xbe204c3f	-0.15654086
25	0x3e43ecff	0.19133376
26	0xbdd4f60e	-0.10398494
27	0x3e2f04c3	0.1709166
28	0xbe98ccca	-0.29843742
29	0x3e7f13e9	0.24909939
30	0xbe880ec2	-0.2657376
31	0xbe0d7182	-0.13812831
32	0x3e439332	0.1909912
33	0xbe7b0d40	-0.24516773
34	0x3dd1b53b	0.10239645
35	0x3d79c2b0	0.060976684
36	0x3ef23029	0.47302368
37	0xbc135f67	-0.008994914
38	0xbde0abff	-0.10970306
39	0x3e816ecf	0.25279853
40	0x3f06d958	0.5267539
41	0xbe573e9d	-0.21019979
42	0xbe7d3298	-0.24726331
43	0x3df97a7a	0.12181564
44	0x3d2c7864	0.042107
45	0xbec1c7b1	-0.37847665
46	0xbd4112fe	-0.047137253
47	0xbec0b7ca	-0.3764022
48	0xbeb9b7aa	-0.36272937
49	0xbe17df1e	-0.14831206
50	0xbdcaa5e7	-0.098949246
51	0xbe30205c	-0.17199844
52	0xbd1165ad	-0.035497356
53	0xbe08ff35	-0.13378604
54	0xbe2daf67	-0.16961442
55	0x3f0db1e7	0.5534958
56	0xbeb628e9	-0.35578087
57	0xbeb21237	-0.34779522
58	0xbc5ad0f9	-0.013355487
59	0xbe9dfb9b	-0.30856022
60	0xbdcf632b	-0.10126337
61	0x3db6b677	0.08921521
62	0xbdc8a276	-0.09796612
63	0xbe29d9c5	-0.16586979
64	0x3da6765d	0.08128045
65	0xbe8317f6	-0.25604218
66	0x3da48601	0.08033372
67	0xbe25a9fc	-0.16178125
68	0x3c2c933e	0.010533152
69	0xbd33ebdf	-0.043926116
70	0x3c18bb57	0.009322009
71	0xbe81c74c	-0.25347364
72	0xbd28ea24	-0.04123892
73	0xbccc35f9	-0.02492808
74	0xbe358e06	-0.17729959
75	0x3ab60c98	0.0013889251
76	0xbe98acb4	-0.29819262
77	0x3dc85172	0.097811595
78	0xbe131303	-0.14362721
79	0x3cad2324	0.02113492
80	0xbeeb5d18	-0.45969462
81	0xbe50c946	-0.2038928
82	0x3e825760	0.25457287
83	0x3f0007a5	0.50011665
84	0xbe344b22	-0.17606786
85	0x3e956843	0.29181108
86	0xbda54834	-0.08070412
87	0x3e18cb5b	0.14921324
88	0xbf1dd5d3	-0.61654395
89	0x3e1e23de	0.1544337
90	0x3be407f7	0.0069589573
91	0x3e25274b	0.1612827
92	0x3f06867e	0.5254897
93	0x3a426851	0.0007416057
94	0xbd45794c	-0.04821138
95	0xbe84825a	-0.258807
96	0xbe8e3247	-0.27772734
97	0xbe25119e	-0.16120002
98	0xbf02cf5d	-0.5109766
99	0xbea959f0	-0.3307643
100	0x3ebb1c2f	0.3654494
101	0xbf413165	-0.75465995
102	0xbeef71a9	-0.46766403
103	0x3eaada08	0.3336947
104	0xbd8e7dd4	-0.069575936
105	0x3ebbb9b2	0.36665112
106	0xbf446f8e	-0.7673272
107	0x3eac9cb6	0.3371331
108	0xbe8cedc0	-0.2752514
109	0xbf1c61d7	-0.6108679
110	0xbe471c1e	-0.1944432
111	0x3df1529b	0.11783334
112	0x3e80ce32	0.25157315
113	0xbe268234	-0.16260606
114	0xbee26490	-0.44217348
115	0xbe79e508	-0.24403775
116	0x3e3c1fe6	0.18371543
117	0xbf1bba1b	-0.6083085
118	0xbf0a7d24	-0.540972
119	0xbe187b1d	-0.14890714
120	0x3c35e5d5	0.0111021595
121	0xbe35eff0	-0.1776731
122	0xbe236942	-0.15958121
123	0xbde17143	-0.11007931
124	0xbd8af3e8	-0.06784803
125	0xbf07d980	-0.53066254
126	0xbd827e6c	-0.06371769
127	0xbf322dd3	-0.6960117
128	0xbe5c89c2	-0.21536925
129	0xbe2d5317	-0.16926228
130	0x3f1c62c2	0.6108819
131	0xbe381895	-0.17978127
132	0xbe4db92c	-0.20090169
133	0x3ec26d97	0.37974235
134	0xbf136897	-0.57581466
135	0x3e7b02e7	0.24512826
136	0xbe064c97	-0.13115154
137	0xbec332a9	-0.38124588
138	0xbd343138	-0.04399225
139	0xbee4d08e	-0.44690365
140	0xbe95fc93	-0.2929426
141	0x3df7f72a	0.1210769
142	0xbe128e4e	-0.14312097
143	0xbea9ea3d	-0.33186522
144	0xbe9ae79e	-0.30254835
145	0xbf3850bf	-0.7199821
146	0xbdacb276	-0.08432476
147	0xbeda5d2a	-0.42649204
148	0x3e841a24	0.25801194
149	0xbe13eda2	-0.14446118
150	0xbd71669a	-0.05893574
151	0x3e9edcf5	0.31027952
152	0xbc1b60f9	-0.009483569
153	0x3dd39c1b	0.10332509
154	0xbeb5b813	-0.35492
155	0xbdb7ce7a	-0.08974929
156	0xbe44cfff	-0.19219969
157	0x3d608b82	0.054820545
158	0x3e3daa07	0.18521892
159	0xbdce826e	-0.10083471
160	0x3e44d2e7	0.19221078
161	0xbe9f53fe	-0.31118768
162	0x3cc5be51	0.024138601
163	0x3e833b07	0.25630972
164	0xbdcc1d01	-0.099664696
165	0x3ecc7feb	0.39941344
166	0xbb9766f7	-0.0046204287
167	0xbc4040dc	-0.011734214
168	0xbe814a41	-0.25251964
169	0x3eba4922	0.3638392
170	0xbd80f160	-0.06296039
171	0xbe62cff4	-0.2214964
172	0x3dd2d2bd	0.102941014
173	0xbf063056	-0.52417505
174	0xbf0ecbf0	-0.55779934
175	0x3f2c7382	0.6736375
176	0x3efa1757	0.48845932
177	0xbd43a1d7	-0.047761764
178	0xbdc32596	-0.09528653
179	0xbea8868c	-0.3291515
180	0x3ed5756d	0.4169115
181	0x3eba3847	0.3637106
182	0xbc681be3	-0.014166805
183	0xbee32a1d	-0.44368067
184	0x3dc2004a	0.094727114
185	0x3e81c41a	0.25344926
186	0x3ddd4c9e	0.10805629
187	0x3e946f05	0.2899095
188	0xbe74253a	-0.23842326
189	0xbe3172ed	-0.17328997
190	0x3f19708a	0.59937346
191	0xbf38905f	-0.7209529
192	0xbda53fba	-0.080687955
193	0x3f874af5	1.056975
194	0x3c7c0d0c	0.01538397
195	0x3eb80dd7	0.3594806
196	0x3dd13da9	0.10216839
197	0x3ef0b675	0.47014204
198	0xbe32ab7d	-0.1744823
199	0xbe751899	-0.23935165
200	0x3ee33835	0.4437882
201	0x3f660f19	0.8986679
202	0xbf216d62	-0.6305753
203	0xbbad36c6	-0.0052860705
204	0x3df59d79	0.11992926
205	0xbe802332	-0.25026852
206	0x3f425d17	0.75923294
207	0xbe8f4841	-0.27984813
208	0x3d9a1d76	0.075251505
209	0x3e28dc81	0.16490366
210	0x3e28799c	0.1645264
211	0xbc4f449e	-0.012650637
212	0x3f085744	0.53258157
213	0x3e071f01	0.13195421
214	0x3dcd6e1c	0.10030767
215	0x3dca0984	0.09865096
216	0x3c23db1f	0.010000973
217	0xbec61a3d	-0.38691893
218	0x3eb6acdd	0.3567876
219	0x3eb97b09	0.3622668
220	0xbd1d7bca	-0.038448133
221	0x3dd112ef	0.102086894
222	0xbef053e3	-0.46939
223	0x3e826f19	0.25475386
224	0x3e0049bf	0.12528132
225	0x3e7aa5ed	0.24477358
226	0xbd2dfe82	-0.042479046
227	0xbe87b300	-0.26503754
228	0xbe7b0994	-0.24515373
229	0x3e5d3d18	0.21605337
230	0x3d300ff2	0.042983957
231	0x3e94f73d	0.29094878
232	0xbf023d38	-0.5087466
233	0xbe7e42cb	-0.24830167
234	0x3ccc8c02	0.024969105
235	0x3e960a1b	0.29304585
236	0x3e00cad9	0.1257738
237	0x3db1fac9	0.086904116
238	0xbd01b495	-0.031666357
239	0xbe1ea166	-0.15491256
240	0xbd8d0bbe	-0.06887005
241	0x3f4f6ddf	0.81027025
242	0x3c0b0cfe	0.008486984
243	0xbe460fcc	-0.19341964
244	0x3f245a74	0.6420052
245	0x3e5874e7	0.21138345
246	0x3baf43f3	0.0053486763
247	0x3ed4637d	0.41482154
248	0x3ed44aac	0.4146322
249	0xbea695e5	-0.32536235
250	0x3db0e4b5	0.086373724
251	0x3ede342e	0.43399185
252	0x3d5b9380	0.053607464
253	0x3cab7a51	0.020932348
254	0x3d437f76	0.047728978
255	0x3e231765	0.15926893

bias_ih_l0 f4 [300]
0	0xbde6cdf9	-0.11269755
1	0xbe890a41	-0.26765636
2	0xbe4b0bab	-0.1982867
3	0x3da4f8e9	0.08055288
4	0xbe352e8e	-0.1769354
5	0xbeb5cc8e	-0.35507625
6	0xbe65a387	-0.22425662
7	0x3b8f6d58	0.0043770485
8	0xbcfad8fb	-0.030621042
9	0xbc63fedc	-0.013915744
10	0xbdf86bc8	-0.12129933
11	0xbf15d057	-0.58521026
12	0x3dbaf5b9	0.09128899
13	0xbe487c10	-0.19578576
14	0xbebfeda3	-0.3748599
15	0x3d8123b0	0.06305635
16	0xbd56fce2	-0.05248726
17	0x3d37de93	0.044889998
18	0xbe268f24	-0.16265541
19	0xbe8da9a2	-0.27668482
20	0xbdf70c1c	-0.120628566
21	0xbe34a4b9	-0.17640962
22	0xb9c5cb9a	-0.00037726463
23	0xbedf2b29	-0.43587616
24	0xbc77f5b4	-0.015134264
25	0xbdd9de40	-0.10638094
26	0xbe34a0b6	-0.17639431
27	0xbe961afb	-0.2931746
28	0xbea1a786	-0.31573123
29	0xbec8f3a4	-0.39248383
30	0xbf114dbe	-0.5675925
31	0xbe5cb213	-0.21552305
32	0xbe5b663c	-0.21425718
33	0xbac4a864	-0.0015003798
34	0xbe2dd261	-0.16974784
35	0xbe32435d	-0.1740851
36	0xbebb6ac0	-0.3660488
37	0xbdfc5ab5	-0.123219885
38	0xbe2595aa	-0.16170374
39	0xbf0113c8	-0.5042081
40	0xbd541b06	-0.051783584
41	0xbe71455c	-0.23561615
42	0xbe95722b	-0.29188666
43	0xbd091660	-0.033468604
44	0xbe2e7115	-0.17035325
45	0x3dbce3fa	0.092231706
46	0xbe9eef8c	-0.31042135
47	0xbeb8d03d	-0.36096373
48	0xbed5f3b6	-0.417875
49	0xbe671d79	-0.22569837
50	0xbe2f6fea	-0.17132536
51	0xbebaed77	-0.36509296
52	0xbecae9eb	-0.3963159
53	0xbc321b75	-0.010870804
54	0xbedd4cdd	-0.43222705
55	0xbe612a95	-0.219889
56	0xbe2783d3	-0.1635888
57	0xbe18e1bc	-0.14929861
58	0x3cce7612	0.025202785
59	0xbe2158dd	-0.15756555
60	0xbd8c5dcd	-0.068538286
61	0xbe754d28	-0.23955214
62	0xbee4cf28	-0.44689298
63	0xbe31b8ad	-0.17355604
64	0xbd71daeb	-0.059046667
65	0xbe9c5e2a	-0.3054059
66	0xbdcf7cba	-0.101312116
67	0x3cdf6224	0.027268477
68	0xbebd4bd2	-0.3697191
69	0xbddc202c	-0.10748324
70	0xbd92a3ce	-0.071601495
71	0xbd3c0ab9	-0.045908663
72	0xbe11a1a4	-0.14221817
73	0xbd909c63	-0.070610784
74	0x3d19aa9c	0.03751622
75	0xbdd738d8	-0.10508889
76	0xbe292ee5	-0.16521795
77	0x3d28c59b	0.041204076
78	0xbeaabf25	-0.33348957
79	0xbe4c7368	-0.19965899
80	0x3c68b44d	0.014203143
81	0xbe5a1bf8	-0.21299732
82	0xbe9f5828	-0.31121945
83	0xbe5504ae	-0.20802566
84	0xbe30303d	-0.17205901
85	0xbe824d6a	-0.25449687
86	0xbdfe5e6c	-0.12420353
87	0x3e36429d	0.17798848
88	0xbe50833e	-0.20362565
89	0xbe01eb82	-0.12687495
90	0xbbcd2559	-0.0062605557
91	0xbe106b25	-0.14103372
92	0xbf436a75	-0.76334316
93	0xbe3a4805	-0.18191536
94	0xbc29e2a2	-0.010368975
95	0xbd078de2	-0.033094294
96	0xbe3e666b	-0.18593757
97	0xbe495e0b	-0.19664781
98	0xbead3677	-0.33830616
99	0xbee82ad7	-0.45345184
100	0x3d5695a4	0.052388802
101	0x3ed2b8c0	0.41156578
102	0xbeb401f3	-0.35157737
103	0x3f67f11f	0.90602297
104	0x3edac658	0.4272945
105	0x3eb744e2	0.3579474
106	0x3db6caaf	0.089253776
107	0x3dd40535	0.10352556
108	0x3ef7e199	0.48414305
109	0x3eb7e683	0.35918054
110	0x3eda394f	0.42621848
111	0x3df23e48	0.118282855
112	0x3e7a45a0	0.24440622
113	0x3e3870dd	0.18011804
114	0x3eb5836e	0.35451835
115	0x3f3447de	0.7042216
116	0x3edf4a88	0.4361155
117	0x3ef0d535	0.47037664
118	0x3ed44da1	0.41465476
119	0x3f043351	0.516408
120	0x3f0629cc	0.52407527
121	0x3f0a8092	0.5410243
122	0x3f2bd55e	0.6712245
123	0x3d8783d7	0.06616943
124	0x3ea4544b	0.3209556
125	0x3edd763b	0.43254265
126	0x3f243564	0.6414397
127	0x3f31c8a8	0.694468
128	0x3e792f6e	0.24334499
129	0x3f37cfa5	0.71801215
130	0xbd774964	-0.060372725
131	0x3ec52d57	0.38511154
132	0x3f6e8c55	0.9318288
133	0x3f1ac741	0.6046029
134	0x3edbe364	0.42946923
135	0x3f2d3684	0.6766131
136	0x3f123705	0.57115203
137	0x3ef09c91	0.4699445
138	0x3f135eae	0.57566345
139	0x3f4a86e2	0.79112065
140	0x3ea18530	0.31546926
141	0x3e13991b	0.14413874
142	0x3ee03e5a	0.4379757
143	0x3e8f4f3c	0.2799014
144	0x3edfa347	0.43679258
145	0x3f0fe0af	0.56202215
146	0x3f55562a	0.833346
147	0x3ebeab9f	0.37240312
148	0x3ee48004	0.44628918
149	0x3ed25627	0.41081354
150	0x3ed52d23	0.41636
151	0x3d368479	0.04455993
152	0x3ee5b129	0.44861725
153	0x3ec14b22	0.37752634
154	0x3ecdc759	0.40191153
155	0x3e63e525	0.2225538
156	0x3eb679d5	0.35639825
157	0x3f1ea7d3	0.6197483
158	0x3f39e2a0	0.7261143
159	0x3ee96391	0.45583776
160	0x3f8053a1	1.0025522
161	0x3f231426	0.6370262
162	0xbdc6dd2f	-0.09710156
163	0x3edd4d2d	0.43222943
164	0x3edf4684	0.43608487
165	0x3ea1d50a	0.31607848
166	0x3eac2bd2	0.33627182
167	0x3f84c368	1.0372133
168	0x3efc1fa2	0.49242884
169	0x3f1d8cad	0.6154278
170	0x3eebb456	0.46036023
171	0x3edd6604	0.43241894
172	0x3f4a0d5d	0.7892664
173	0x3eeff9ee	0.4687037
174	0x3f4f59f1	0.80996615
175	0x3ee1fe69	0.44139412
176	0x3d07f857	0.03319582
177	0x3ed6394c	0.4184059
178	0x3eeb3213	0.4593664
179	0x3d891860	0.06694102
180	0x3f07ced8	0.53049994
181	0x3f225224	0.63406587
182	0x3f75d87b	0.9603345
183	0x3e88a13b	0.2668551
184	0x3f2cdedd	0.6752756
185	0x3e81b530	0.25333548
186	0x3ec3549f	0.38150498
187	0x3f411a4d	0.75430757
188	0x3f5a7817	0.8533949
189	0x3ecdfb04	0.40230572
190	0x3f109f88	0.56493425
191	0x3f35b74b	0.7098281
192	0x3f36aa95	0.7135404
193	0xbe5baad3	-0.21451883
194	0x3e815b17	0.2526481
195	0x3b9afb56	0.0047296686
196	0x3f15b405	0.58477813
197	0x3dc478d0	0.09593356
198	0x3d9a1199	0.07522888
199	0x3e0c5695	0.13704903
200	0xbe535c3f	-0.20640658
201	0xbdb88976	-0.090105936
202	0x3dfd47f9	0.12367243
203	0xbcb114d6	-0.02161638
204	0xbca369e7	-0.01994796
205	0xbdc46162	-0.09588887
206	0x3e9d3474	0.3070408
207	0x3e706866	0.23477325
208	0x3dece10b	0.11566361
209	0x3e59650d	0.21229954
210	0x3e4220be	0.18957803
211	0x3e061003	0.13092045
212	0x3e4dd888	0.20102131
213	0x3df39ce1	0.11895157
214	0xbd493c6f	-0.0491299
215	0xbd374433	-0.044742774
216	0xbd4b0bee	-0.049571924
217	0x3ea6fff7	0.3261716
218	0x3e702d2f	0.23454736
219	0xbe7f55b4	-0.24935037
220	0x3daa04b2	0.08301677
221	0x3e0a6703	0.13515858
222	0x3df46898	0.11934012
223	0xbd865abe	-0.065602764
224	0xbe48afb2	-0.19598272
225	0xbd80ad5d	-0.062830664
226	0xbe35de72	-0.17760637
227	0x3ce3d744	0.027812608
228	0x3ee8a76a	0.45440227
229	0xbc725cc2	-0.014792623
230	0xbe00b70f	-0.12569831
231	0xbdbafde3	-0.09130456
232	0x3c9b356f	0.018946378
233	0x3e13280e	0.14370748
234	0x3ea91f1b	0.33031544
235	0xbd9bd164	-0.076082975
236	0x3db8ff9f	0.09033131
237	0x3d04a793	0.032386374
238	0x3e2172fb	0.15766518
239	0xbda617ec	-0.081100315
240	0x3d4ee20e	0.05050855
241	0x3d08e27b	0.033419114
242	0xbe46f853	-0.19430666
243	0x3df5a03c	0.11993453
244	0x3e27aa31	0.16373517
245	0x3ce3a1b6	0.02778707
246	0xbe47f9c0	-0.19528866
247	0xbb56e3ac	-0.0032789512
248	0x3bb6b3cf	0.005575634
249	0xbbdb5374	-0.006693298
250	0x3c22554f	0.0099080345
251	0xbe29bff6	-0.16577134
252	0xba6f11fa	-0.0009119805
253	0x3b956af5	0.0045598694
254	0x3df235c8	0.11826664
255	0x3d06f8a0	0.03295195

bias_hh_l0 f4 [300]
0	0xbe0d089d	-0.13772817
1	0xbeae2c4c	-0.3401817
2	0xbdb484f8	-0.08814424
3	0x3de535ed	0.11191926
4	0xbe84142f	-0.2579665
5	0xbe9e4168	-0.30909276
6	0xbea9b160	-0.3314314
7	0xbd5bc37d	-0.05365323
8	0xbb773049	-0.003771799
9	0xbd000e7c	-0.031263813
10	0xbe1f7aa1	-0.15574123
11	0xbf0a5e54	-0.54050183
12	0xbd472b4e	-0.048625283
13	0xbe378e08	-0.17925274
14	0xbf02b6fd	-0.5106047
15	0x3d1efc0a	0.038814582
16	0xbe26ec65	-0.16301115
17	0xbc4e2b0a	-0.0125835035
18	0xbe20bdba	-0.15697375
19	0xbe99bf1f	-0.30028626
20	0xbda5238b	-0.0806342
21	0xbdffc4ed	-0.124887325
22	0x3e11757e	0.14204976
23	0xbecda8d7	-0.40167877
24	0x3c4e25fd	0.012582299
25	0x3c0e7366	0.008694505
26	0xbdc647b6	-0.096816465
27	0xbe027b2d	-0.127423
28	0xbe9b3e4d	-0.3032097
29	0xbebd3a92	-0.36958748
30	0xbf0de799	-0.55431515
31	0xbdb6e482	-0.08930303
32	0xbe1de759	-0.15420283
33	0xbe108356	-0.141126
34	0xbe400b82	-0.1875439
35	0xbe983d63	-0.29734334
36	0xbe7725fb	-0.24135582
37	0xbdbc1360	-0.09183383
38	0xbd5744af	-0.052555736
39	0xbf09677a	-0.5367352
40	0xbcca1b9f	-0.024671374
41	0xbed0befb	-0.40770707
42	0xbe42e947	-0.190343
43	0xbc9426e8	-0.018084958
44	0xbd78336f	-0.060595926
45	0x3df125e5	0.11774806
46	0xbe84c687	-0.25932714
47	0xbe4a411e	-0.19751403
48	0xbe7acf35	-0.24493106
49	0xbe0fc6fc	-0.1404075
50	0xbe0db58b	-0.13838784
51	0xbe43df07	-0.19128047
52	0xbebc812d	-0.36817303
53	0x3ddb9b3f	0.1072297
54	0xbe967177	-0.29383442
55	0xbdb30c91	-0.08742631
56	0xbe0398aa	-0.12851205
57	0xbe71e3a2	-0.23621991
58	0x3cd59af5	0.026074866
59	0xbe354309	-0.17701353
60	0x3d7385b5	0.059453685
61	0xbe1469f5	-0.14493544
62	0xbf067b35	-0.5253175
63	0xbe766719	-0.24062766
64	0x3cf6cf4c	0.030128144
65	0xbea54615	-0.3228003
66	0xbd94748b	-0.07248791
67	0xbe0c65e7	-0.13710748
68	0xbeacfaea	-0.33785182
69	0x3cb68ef2	0.022284959
70	0x3dcfed51	0.101526864
71	0x3d863fa4	0.06555107
72	0x3cf29632	0.029612634
73	0xbde5629d	-0.112004496
74	0xbd5ac2e9	-0.053408537
75	0xbd9bf628	-0.0761531
76	0xbd468961	-0.04847086
77	0x3e3e4d49	0.1858417
78	0xbe831160	-0.25599194
79	0xbe5b8116	-0.21435961
80	0xbdab9292	-0.083775654
81	0xbe48bd72	-0.19603518
82	0xbeb844f0	-0.35990095
83	0xbdc10b66	-0.09426002
84	0xbdd25787	-0.10270601
85	0xbec33187	-0.38123724
86	0xbe0e2347	-0.13880645
87	0x3e8205d2	0.25395066
88	0xbea70b93	-0.32626018
89	0xbe47eda3	-0.19524245
90	0xbd149502	-0.036274917
91	0xbe43be54	-0.19115573
92	0xbf1b7003	-0.6071779
93	0xbdf559cf	-0.1198002
94	0xbe14f512	-0.14546612
95	0xbc81480a	-0.015781421
96	0xbe7dbacb	-0.24778287
97	0xbe2f22d3	-0.17103128
98	0xbeaabcd2	-0.33347183
99	0xbef1874a	-0.4717353
100	0x3e24cbe1	0.16093399
101	0x3ef5f4e3	0.48038396
102	0xbe5ee290	-0.21766114
103	0x3f509daf	0.81490606
104	0x3eeee097	0.46655723
105	0x3ec31aa0	0.3810625
106	0x3e2cafbc	0.16863912
107	0x3dc9c374	0.09851733
108	0x3f0ea5fd	0.5572203
109	0x3e6fbba8	0.23411429
110	0x3edbcb79	0.42928675
111	0x3e0964af	0.13417314
112	0x3e423b8b	0.18968026
113	0x3dd02de1	0.10165001
114	0x3ec3dc1b	0.38253865
115	0x3f56eaae	0.8395184
116	0x3ea31bd7	0.31857178
117	0x3edbd1a2	0.42933375
118	0x3eed0ce5	0.462989
119	0x3f11e203	0.5698549
120	0x3eafca4d	0.3433403
121	0x3ee14e01	0.44004825
122	0x3f215c3a	0.6303135
123	0x3e817ce3	0.25290594
124	0x3e2b5d62	0.16734841
125	0x3f0675a5	0.5252326
126	0x3f21088b	0.6290366
127	0x3f1d6645	0.61484176
128	0x3e50654a	0.20351139
129	0x3f21fabe	0.6327323
130	0x3c3aa4d5	0.011391838
131	0x3ebea581	0.37235644
132	0x3f82d8bc	1.0222392
133	0x3f2b34e5	0.66877586
134	0x3eeccebd	0.4625148
135	0x3f21b15b	0.6316125
136	0x3f10b9be	0.5653342
137	0x3ee98b32	0.4561401
138	0x3f0ce34b	0.5503432
139	0x3f50e2bf	0.8159599
140	0x3e813bb2	0.25240856
141	0x3e8d62f7	0.27614567
142	0x3ee40806	0.4453737
143	0x3e7a048f	0.24415801
144	0x3ee24343	0.44191942
145	0x3f0d4110	0.551774
146	0x3f5996c2	0.84995663
147	0x3eec0304	0.4609605
148	0x3f001df0	0.5004568
149	0x3ec02610	0.3752904
150	0x3e8a87d0	0.27056742
151	0x3c9b2ece	0.018943217
152	0x3efc986d	0.49335042
153	0x3e96b040	0.29431343
154	0x3ebaa1cb	0.36451563
155	0x3ead928a	0.33900863
156	0x3e8b1a73	0.27168617
157	0x3ef5d6ff	0.48015592
158	0x3f4e40d9	0.805677
159	0x3ef71040	0.48254585
160	0x3f8cf4b2	1.1012175
161	0x3f05407c	0.5205152
162	0xbda18a2e	-0.07887684
163	0x3eed2291	0.46315435
164	0x3ec12be4	0.37728798
165	0x3e86caaf	0.2632651
166	0x3ec267bc	0.37969768
167	0x3f798944	0.97475076
168	0x3f05c1d8	0.5224891
169	0x3f3be6b9	0.7339893
170	0x3eeda89f	0.4641771
171	0x3f0001df	0.50002855
172	0x3f4a5399	0.7903381
173	0x3ef0f9b4	0.47065508
174	0x3f510a6f	0.81656545
175	0x3e94d088	0.29065347
176	0x3cbcf773	0.023067212
177	0x3ea4ba80	0.32173538
178	0x3f04ed84	0.5192492
179	0x3e262950	0.16226697
180	0x3ef07c90	0.46970034
181	0x3f25ec2d	0.648135
182	0x3f6a8b7a	0.91619074
183	0x3e2950ff	0.16534804
184	0x3f1e7786	0.6190113
185	0x3e34d4a7	0.17659245
186	0x3ec636c4	0.38713658
187	0x3f48a0d4	0.78370404
188	0x3f3b2d38	0.73115873
189	0x3ed21072	0.41028172
190	0x3f1d47d2	0.61437714
191	0x3f3dad27	0.74092335
192	0x3f39549f	0.72394747
193	0xbe829214	-0.25502074
194	0x3ebacdd2	0.36485153
195	0x3d473981	0.048638824
196	0x3ef6bb78	0.48189902
197	0x3e1b5a08	0.15171063
198	0x3e3b1292	0.18268803
199	0x3d0b6566	0.034032248
200	0xbe2e01e0	-0.16992903
201	0xbe09204c	-0.13391227
202	0x3b4ffc2d	0.0031736002
203	0xbdc8ea4c	-0.098103136
204	0xbd3ae6db	-0.045630317
205	0xbbd77254	-0.0065749083
206	0x3ea02f4c	0.31286085
207	0x3e754400	0.23951721
208	0x3d5947a6	0.053046845
209	0xbde3524f	-0.110996835
210	0x3d593890	0.053032458
211	0x3d6cdd0a	0.057827987
212	0x3c16d083	0.0092049865
213	0x3ddd2f87	0.10800081
214	0xbd61c57e	-0.055119984
215	0xbdb822cd	-0.08991013
216	0xbce1c4a6	-0.02755959
217	0x3d255c3c	0.040371165
218	0x3e17d685	0.14827926
219	0xbe4b37e0	-0.19845533
220	0x3e4d7ef6	0.20067963
221	0x3cc27caa	0.023741085
222	0x3e380487	0.17970477
223	0xbce4a1b6	-0.027909141
224	0xbe4a94ef	-0.19783376
225	0x3dc0b2fb	0.09409138
226	0xbe470190	-0.1943419
227	0xbd44a8dc	-0.0480126
228	0x3e75a074	0.2398699
229	0x3d99a078	0.0750131
230	0x3dc8e9f8	0.09810251
231	0xbd858af1	-0.065206416
232	0x3e3b9860	0.18319845
233	0xbc3f95f8	-0.01169347
234	0x3e8a7305	0.27040878
235	0xbdad30e9	-0.084565945
236	0x3d54ad04	0.051922813
237	0x3e25c9fa	0.16190329
238	0x3d7ae6d6	0.0612553
239	0xbe080cba	-0.13286105
240	0x3deb13cc	0.11478385
241	0xbb519136	-0.0031977422
242	0xbe8211db	-0.25404248
243	0x3d227612	0.039663382
244	0x3e5fba1e	0.21848342
245	0xbde7ec27	-0.11324339
246	0xbe5de0a3	-0.21667723
247	0x3c97ee88	0.018546358
248	0xbd6fab2b	-0.058512848
249	0x3d81ef91	0.06344522
250	0xbdffd6ba	-0.12492128
251	0xbe0e3def	-0.13890813
252	0xbe2b85bd	-0.16750236
253	0xbde2933a	-0.110632375
254	0x3d18268b	0.037146132
255	0xbca50b10	-0.020146877

weight f4 [14, 100]
0	0x3d95e3a4	0.0731881
1	0x3ecfc32b	0.4057859
2	0x3de0bb86	0.10973267
3	0x3f39f613	0.72641104
4	0x3de0c69d	0.109753825
5	0x3f43c42a	0.764712
6	0x3d86848f	0.06568252
7	0xbdc8965d	-0.097943045
8	0xbebf0f0e	-0.37316173
9	0xbee998e2	-0.45624453
10	0xbc2ee6f4	-0.010675181
11	0xbee4c180	-0.4467888
12	0x3e91dd86	0.2848932
13	0x3e3d1825	0.18466242
14	0xbe77bc75	-0.24192984
15	0x3e63a9dd	0.22232766
16	0x3cf999de	0.030468877
17	0xbe5feadd	-0.21866937
18	0x3df85a06	0.121265456
19	0x3c894adc	0.016759329
20	0xbe80380d	-0.25042763
21	0xbe6d5446	-0.23176679
22	0xbded23cf	-0.115790956
23	0x3d8c9ce6	0.068658635
24	0xbe3e2000	-0.18566895
25	0xbf83d822	-1.0300333
26	0x3f17f2fb	0.59355134
27	0xbf17d375	-0.5930703
28	0x3de856e5	0.11344699
29	0xbe614b8a	-0.22001472
30	0x3c374eca	0.011188218
31	0x3ce447a6	0.027866196
32	0x3d888249	0.06665475
33	0xbf4774c9	-0.77912575
34	0xbf1cd474	-0.6126168
35	0x3ec058a9	0.37567642
36	0x3f193719	0.598497
37	0x3e9640c0	0.29346275
38	0xbeb18125	-0.34668842
39	0x3ebbf824	0.36712754
40	0xbf00d4b3	-0.50324553
41	0xbf1b69bd	-0.6070822
42	0xbe848fa5	-0.25890842
43	0xbd8eff0f	-0.06982242
44	0x3e96e094	0.29468215
45	0x3e4fa7cd	0.20278855
46	0xbe757d78	-0.23973644
47	0xbf2eb828	-0.6824975
48	0xbee47f28	-0.44628263
49	0x3ef4c03b	0.4780291
50	0x3e08a229	0.13343109
51	0x3d103893	0.035210203
52	0x3efc24b1	0.49246743
53	0x3f3ef334	0.7458985
54	0xbed3d246	-0.41371363
55	0xbc50a06d	-0.012733561
56	0x3e7e734b	0.24848668
57	0x3ce1f519	0.027582692
58	0x3eb0b880	0.34515762
59	0x3de07587	0.109599166
60	0xbe1a9979	-0.15097608
61	0xbe234ea3	-0.15947966
62	0xbf041d2e	-0.51607025
63	0xbf406bae	-0.75164306
64	0xbee226ce	-0.4417023
65	0x3e99269d	0.29912272
66	0xbea7b028	-0.32751584
67	0x3f2815de	0.65658367
68	0x3d9ead4a	0.07747896
69	0x3f04379d	0.5164736
70	0xbf59fbb6	-0.85149705
71	0x3ed49040	0.41516304
72	0x3db6bec0	0.089231014
73	0xbef3db89	-0.4762843
74	0x3ca98421	0.020692887
75	0x3ee0d90a	0.43915588
76	0x3dfcc9f3	0.12343206
77	0x3ee19edc	0.44066513
78	0xbec39de6	-0.38206404
79	0xbe29ef13	-0.16595106
80	0xbf0136e4	-0.5047438
81	0x3f411b25	0.75432044
82	0xbeae2f0e	-0.34020275
83	0xbd5d3960	-0.054009795
84	0x3e37d132	0.17950895
85	0x3dcc3724	0.09971455
86	0x3efbe70c	0.49199712
87	0xbe8c96f1	-0.2745891
88	0xbde6ed60	-0.112757444
89	0x3dd9ca1e	0.10634254
90	0xbf01d11f	-0.5070972
91	0xbdc1abe8	-0.09456617
92	0xbec5cc12	-0.38632256
93	0x3ea95adc	0.33077133
94	0x3dcb78aa	0.09935124
95	0x3ec4ed0b	0.384621
96	0x3f02ea68	0.51138926
97	0x3e7ede0a	0.24889389
98	0xbf2e4531	-0.6807433
99	0xbf0c5ffc	-0.5483396
100	0x3ea46332	0.3210693
101	0xbdab23d0	-0.0835644
102	0x3d377768	0.04479161
103	0xbe644de9	-0.22295345
104	0x3d2bf9d7	0.041986313
105	0xbf0b9829	-0.5452905
106	0xbe869e4f	-0.26292655
107	0xbf34f869	-0.70691544
108	0x3eddafc5	0.43298164
109	0xbef11210	-0.47084093
110	0x3e71a792	0.23599079
111	0xbe33e600	-0.17568207
112	0xbd02c9b2	-0.031930633
113	0x3d976cef	0.07393824
114	0xbd54bd5c	-0.0519384
115	0x3d04d9fe	0.032434456
116	0x3e3482a2	0.17627957
117	0xbed3ce51	-0.41368344
118	0x3d52f9e9	0.051507864
119	0x3dd50029	0.10400421
120	0xbe8311b4	-0.25599444
121	0x3c037ba3	0.008025083
122	0x3f181564	0.5940764
123	0xbc8eb7f7	-0.017421706
124	0x3d36520a	0.044511832
125	0x3f560777	0.8360514
126	0xbd1f53a0	-0.03889811
127	0xbeb158f7	-0.34638187
128	0xbd319330	-0.04335326
129	0xbe3d0dee	-0.18462345
130	0x3e805b8b	0.25069842
131	0xbe1bdfad	-0.15222044
132	0x3cc64e11	0.024207147
133	0xbd8726a3	-0.06599166
134	0x3e9c2412	0.3049627
135	0x3f316f47	0.6931042
136	0xbccaa6d4	-0.024737753
137	0xbf0ff6b9	-0.56235844
138	0xbe125e50	-0.1429379
139	0xbf23d1f7	-0.63992256
140	0x3ea71504	0.3263322
141	0x3e9ab76f	0.30218074
142	0xbe172079	-0.14758481
143	0xbf18e717	-0.59727615
144	0x3a40d93a	0.0007356588
145	0x3e72dfc9	0.2371818
146	0xbb298f00	-0.0025872588
147	0x3e2b7749	0.16744722
148	0x3ec55000	0.38537598
149	0x3ec31336	0.38100594
150	0x3f0347d6	0.5128149
151	0xbe9d894b	-0.3076881
152	0x3ed1cd44	0.40976918
153	0x3b8a1af2	0.004214638
154	0x3f727c9f	0.94721407
155	0xbf6a67e5	-0.9156478
156	0xbede7c7c	-0.4345435
157	0x3d50d265	0.050981898
158	0xbf4f1b97	-0.80901474
159	0x3da6e863	0.08149793
160	0xbec626d2	-0.38701493
161	0x3e9acfc2	0.30236632
162	0x3eac2775	0.33623853
163	0xbf32fd4b	-0.69917744
164	0xbec54d07	-0.3853533
165	0xbeb50109	-0.35352352
166	0x3e29226e	0.1651704
167	0x3f2371eb	0.638457
168	0x3e6a7c8d	0.22899075
169	0xbeb34c69	-0.35019234
170	0xbe8390e0	-0.25696468
171	0x3f90b3dd	1.130489
172	0x3d745bf6	0.059658013
173	0xbf1d5312	-0.6145488
174	0x3c827582	0.015925173
175	0xbf0daedb	-0.55344933
176	0x3d2b4fa3	0.041823994
177	0x3f017619	0.5057083
178	0x3ea858b1	0.32880166
179	0x3d2f2341	0.04275823
180	0xbea40cb8	-0.32040954
181	0xbe27d3b5	-0.16389354
182	0xbe907c90	-0.28220034
183	0x3eeaaac2	0.45833403
184	0xbce0e493	-0.027452743
185	0xbef358cc	-0.47528684
186	0x3f1429df	0.5787639
187	0xbf064123	-0.5244314
188	0x3f4e86c8	0.8067441
189	0xbf08590b	-0.5326087
190	0x3ee9c0ca	0.456549
191	0xbe8a6873	-0.27032813
192	0xbec84c2d	-0.39120618
193	0xbee9931c	-0.45620048
194	0x3e5bd0df	0.21466397
195	0x3f0f5590	0.55989933
196	0xbf0903f8	-0.5352168
197	0x3d4ecdd4	0.05048926
198	0xbcd581f6	-0.026062947
199	0xbbfe9019	-0.0077686426
200	0x3a1ec862	0.0006057081
201	0x3e23bde1	0.15990402
202	0x3f1a57cd	0.60290223
203	0x3d3fe862	0.046852477
204	0xbc7103bf	-0.014710366
205	0xbf1b62a2	-0.60697377
206	0xbef89aa5	-0.48555484
207	0x3dac43ea	0.08411391
208	0xbede4f4a	-0.43419868
209	0xbed3c3f1	-0.4136043
210	0xbeeb74c2	-0.45987517
211	0x3f672c41	0.903019
212	0x3ec553a1	0.38540366
213	0x3f140388	0.5781789
214	0x3ebda7c5	0.3704206
215	0x3ec63a77	0.3871648
216	0x3c862d91	0.01637915
217	0x3fb131ce	1.3843324
218	0xbe133c55	-0.14378484
219	0x3e1bd3bb	0.15217488
220	0xbf305579	-0.6888042
221	0xbde552c8	-0.1119743
222	0xbe22883e	-0.15872285
223	0x3dc6e660	0.09711909
224	0x3edd3420	0.4320383
225	0x3e7ad036	0.24493489
226	0x3e8606d6	0.2617709
227	0x3eadfe4f	0.33983085
228	0x3e8e5b8b	0.27804217
229	0xbe8db3e6	-0.27676314
230	0x3ec62f3e	0.38707918
231	0xbc220a26	-0.009890115
232	0xbea444d7	-0.3208377
233	0x3f53b460	0.82697105
234	0x3e1bb7d4	0.15206844
235	0x3bf168a4	0.0073672105
236	0xbe9d7530	-0.3075347
237	0x3dfd6bf2	0.123741046
238	0xbf06bced	-0.5263203
239	0x3ec74afa	0.3892439
240	0x3c99cbfa	0.018774021
241	0x3e920b24	0.28524125
242	0x3e647401	0.22309877
243	0x3df8b744	0.1214433
244	0x3e290703	0.16506581
245	0x3eab99e0	0.33515835
246	0x3e223524	0.15840584
247	0xbea0c402	-0.31399542
248	0x3ec7251d	0.38895503
249	0x3ec153ff	0.37759396
250	0xbe0e80da	-0.1391634
251	0xbe0761b5	-0.13220866
252	0x3e02a338	0.12757576
253	0x3f30f7cb	0.691281
254	0x3f64052f	0.8907041
255	0x3f898aef	1.0745524

bias f4 [14]
0	0x3d1a1e88	0.037626773
1	0xbcaf384a	-0.021389145
2	0x3e0040ad	0.12524672
3	0x3da49ef5	0.08038131
4	0xbc158af6	-0.009127369
5	0x3c9b7cb8	0.018980369
6	0xbd08d657	-0.033407535
7	0xbe930dfb	-0.28721604
8	0xbcb01427	-0.021493984
9	0x3c9351c1	0.01798332
10	0xbd0e28b7	-0.034706797
11	0xbe56a6f2	-0.20962122
12	0x3d2b4235	0.041811187
13	0x3c7fb1fc	0.0156064
