pretrained_cnn.pt (torch_old, 405193 bytes, 6 tensors)

weight f4 [35, 1, 30, 10]
-0.037491567 -0.075655974 -0.033688996 -0.046534378 0.007951784 -0.010977024 0.066650435 -0.026497195
0.044240527 0.036784783 -0.05382651 0.057941172 -0.011095422 0.041764483 0.09618628 0.03737843
-0.011895689 0.032075934 -0.031100964 -0.05998714 0.092699654 0.012810606 -0.008126809 0.0836385
0.080851585 0.01778597 0.03109767 -0.022532292 -0.074553415 -0.051919285 -0.10235782 -0.12025854
-0.07241433 -0.04188043 -0.13922086 -0.028248679 -0.010049084 -0.024000682 -0.0085971495 0.07347041
-0.11298434 -0.028285308 0.021037567 -0.0115070185 -0.00898297 -0.012053398 -0.0076733334 0.012099959
0.0054149865 -0.0063437345 -0.15509231 -0.13557445 -0.096759565 -0.098570004 -0.06744221 0.021605197
0.06616085 0.0018877075 0.09717067 0.082179695 0.0028109758 -0.025201844 0.0022004363 0.041207217
0.021674532 0.0067788213 0.06243851 0.02551344 0.029016882 -0.07590292 0.1067819 0.09417107
0.08824292 0.018833164 0.019573795 7.313561e-05 0.013901455 -0.008664679 -0.13864008 -0.20176268
0.109588556 0.11407721 0.0616814 -0.056366853 0.040391263 -0.05623244 -0.033923224 -0.108864546
-0.08202317 -0.09044015 -0.00045723672 0.055201717 0.052710343 0.031078221 0.02543285 0.06880748
0.042224452 0.05447206 0.026720077 -0.009900861 -0.09581778 -0.061123293 -0.019731158 0.008291793
0.07631138 0.016233763 0.081400916 0.041481674 0.028248206 0.06205142 0.1347575 0.14159252
0.058908097 0.11609066 0.038538247 0.0615588 -0.033154946 -0.068099126 -0.10250325 -0.0971172
0.09544567 0.09524765 0.16843948 0.1932307 0.13870011 0.15972194 0.15408336 0.20261008
0.22894894 0.20300747 -0.106955476 -0.0558879 -0.08128643 -0.12144316 -0.14343898 -0.11675215
-0.14057508 0.015570622 0.020372989 -0.013154494 0.1307081 0.07656642 0.024413092 0.038609974
0.06218696 0.014382228 0.028319437 0.059242878 0.031248719 -0.014287634 0.15551503 0.0987488
0.1556597 0.12637614 0.01450839 0.022191472 0.14562757 0.07812522 0.08755113 0.10488719
0.037184987 0.093601294 0.062325608 -0.03979541 0.026479151 0.0977851 -0.015956612 -0.0941551
-0.09833089 -0.08649437 -0.038483124 -0.020100145 -0.060428947 -0.018018028 0.012353328 0.06693477
-0.01667552 0.0029479912 -0.018869681 -0.0051855543 0.060705483 0.07499731 0.02561993 -0.02152346
-0.04880199 -0.03459766 -0.033109915 -0.11692098 -0.036163785 0.010252003 0.063289694 0.056839187
0.07778676 0.055292234 0.07519778 0.07863371 0.06463908 0.05729219 0.07499434 0.19363375
0.0043318183 0.003281825 0.011140786 0.082254544 -0.0029436382 -0.061007597 -0.07581019 -0.034708243
-0.13770054 -0.12324718 0.01789432 0.00513107 -0.009706266 0.023154471 0.004455852 -0.08819835
-0.11619835 -0.11030593 -0.063806444 -0.051570456 -0.033023734 -0.048234813 -0.05324965 -0.11908656
-0.12642908 -0.077357784 -0.10115066 0.0033267832 0.010875692 0.046507977 0.07310516 0.021157568
0.0419199 0.05304751 0.029678486 -0.10088639 -0.048431173 -0.09802598 -0.07145798 -0.035280213
0.040911943 -0.06196688 -0.024058616 -0.064693116 -0.03694454 0.014194981 0.022322722 -0.04714055
-0.064296275 -0.08586075 0.042208612 0.0613752 -0.089749426 -0.06304488 -0.079827584 -0.025965922
00000000: c290 19bd 85f1 9abd 79fd 09bd d59a 3ebd
00000010: 3348 023c fad8 33bc 0680 883d a510 d9bc
00000020: 8e35 353d a4ab 163d 3079 5cbd b953 6d3d
00000030: 93c9 35bc 3c11 2b3d 50fd c43d 201a 193d
00000040: 23e6 42bc 0e62 033d 73c7 febc 13b5 75bd
00000050: 51d9 bd3d 93e3 513c 4f26 05bc a94a ab3d
00000060: 8495 a53d e2b3 913c 8ac0 fe3c a495 b8bc
00000070: 76af 98bd 51a9 54bd faa0 d1bd 1c4a f6bd
00000080: f74d 94bd d08a 2bbd ea8f 0ebe c669 e7bc
00000090: eaa4 24bc 149d c4bc 0fdb 0cbc a877 963d
000000a0: 5564 e7bd 97b6 e7bc fa56 ac3c ef87 3cbc
000000b0: 4f2d 13bc 9e7b 45bc 9670 fbbb e83e 463c
000000c0: 3370 b13b 1adf cfbb 85d0 1ebe 07d4 0abe
000000d0: e129 c6bd 12df c9bd 241f 8abd 62fd b03c
000000e0: 577f 873d f46c f73a 6b01 c73d d44d a83d
000000f0: 5938 383b 1974 cebc 3235 103b e6c8 283d
00000100: ca8e b13c e020 de3b 86bf 7f3d 9001 d13c
00000110: d0b4 ed3c fd72 9bbd 78b0 da3d c3dc c03d
00000120: b4b8 b43d 0248 9a3c 3959 a03c 6260 9938
00000130: eec2 633c 4cf6 0dbc aaf7 0dbe e09a 4ebe
00000140: f76f e03d 50a1 e93d a3a5 7c3d eee0 66bd
00000150: 4f71 253d fd53 66bd 14f3 0abd 60f4 debd
00000160: c4fb a7bd af38 b9bd 46b9 efb9 321b 623d
00000170: cde6 573d c197 fe3c 8d58 d03c f0ea 8c3d
00000180: 8cf3 2c3d 181e 5f3d 10e4 da3c 3937 22bc
00000190: 1d3c c4bd 6b5c 7abd 3da3 a1bc 4dda 073c
000001a0: 2449 9c3d abfc 843c 86b5 a63d b0e8 293d
000001b0: c868 e73c a129 7e3d dffd 093e a1fd 103e
000001c0: 9e49 713d f1c0 ed3d 48da 1d3d 1525 7c3d
000001d0: 7bcd 07bd 8e77 8bbd 39ed d1bd 62e5 c6bd
000001e0: 0579 c33d 3311 c33d 667b 2c3e 45de 453e
000001f0: 6707 0e3e 268e 233e 07c8 1d3e 0479 4f3e
00000200: 9771 6a3e 31e1 4f3e 790b dbbd b6ea 64bd
00000210: 8079 a6bd 31b7 f8bd abe1 12be c01b efbd
00000220: eaf2 0fbe ec1b 7f3c 41e5 a63c f285 57bc
00000230: 58d8 053e dbce 9c3d f7fd c73c 7e25 1e3d
00000240: c1b7 7e3d 70a3 6b3c 2afe e73c a9a8 723d
00000250: 50fd ff3c ae16 6abc 553f 1f3e d03c ca3d
00000260: 4265 1f3e bf68 013e 99b4 6d3c e4ca b53c
00000270: 651f 153e 1e00 a03d 024e b33d 18cf d63d
00000280: 494f 183d 09b2 bf3d 2349 7f3d 8300 23bd
00000290: ceea d83c 8e43 c83d 71b7 82bc 64d4 c0bd
000002a0: b561 c9bd f623 b1bd 7ba0 1dbd 0fa9 a4bc
000002b0: 5884 77bd 8b9a 93bc 9d65 4a3c 1915 893d
000002c0: 1a9b 88bc 1633 413b 9794 9abc 95eb a9bb
000002d0: 50a6 783d 3198 993d e3e0 d13c f851 b0bc
000002e0: 98e4 47bd 47b6 0dbd 439e 07bd 4474 efbd
000002f0: 7a20 14bd 04f8 273c 079e 813d 35d0 683d
00000300: aa4e 9f3d 1c7a 623d 4b01 9a3d b60a a13d
00000310: 7e61 843d 37ab 6a3d a296 993d ed47 463e
00000320: edf1 8d3b e313 573b d887 363c 1275 a83d
00000330: 0eea 40bb 1ae3 79bd 5f42 9bbd 3b2a 0ebd
00000340: 5f01 0dbe 0469 fcbd 1c97 923c 8922 a83b
00000350: 0807 1fbc 72ae bd3c 6502 923b 56a1 b4bd
00000360: 67f9 edbd 13e8 e1bd f4ac 82bd 8b3b 53bd
00000370: e543 07bd de91 45bd 4e1c 5abd a8e3 f3bd
00000380: a076 01be c26d 9ebd 1428 cfbd 2906 5a3b
00000390: f52f 323c 267f 3e3d 28b8 953d a352 ad3c
000003a0: 33b4 2b3d 5948 593d 4c20 f33c 869d cebd
000003b0: c45f 46bd d8c1 c8bd 9058 92bd fc81 10bd
000003c0: 4893 273d fcd0 7dbd 9316 c5bc d37d 84bd
000003d0: 2853 17bd 1192 683c 24de b63c 7316 41bd
000003e0: c4ad 83bd c3d7 afbd f0e2 2c3d 9064 7b3d
000003f0: 8cce b7bd ad1d 81bd a57c a3bd 7cb6 d4bc

bias f4 [35]
0.0073575918 0.0015999263 -0.017403396 -0.11421131 -0.027913291 -0.09082011 -0.14115897 -0.044311795
-0.037004855 -0.06131919 -0.013623658 0.013792114 -0.059449088 -0.12306144 -0.10383591 -0.044418804
-0.048007943 -0.08261982 -0.07440649 0.026858928 0.0027622494 -0.055959422 -0.04646819 -0.018057385
-0.0697544 -0.049793784 -0.008807564 -0.08766287 -0.058363926 -0.051582955 -0.031791512 -0.14097995
-0.09423681 -0.12697782 -0.09718596
00000000: f417 f13b 9eb4 d13a 9191 8ebc 9fe7 e9bd
00000010: 6aaa e4bc e5ff b9bd fa8b 10be 4980 35bd
00000020: 6792 17bd d529 7bbd c335 5fbc 52f8 613c
00000030: e380 73bd a307 fcbd eca7 d4bd 7ef0 35bd
00000040: faa3 44bd 9534 a9bd 6e62 98bd 4107 dc3c
00000050: db06 353b b535 65bd 6e55 3ebd 15ed 93bc
00000060: 65db 8ebd 91f4 4bbd 9a4d 10bc 9788 b3bd
00000070: 030f 6fbd a648 53bd d137 02bd 0c5d 10be
00000080: 3bff c0bd 7906 02be 6f09 c7bd

weight f4 [70, 1, 30, 40]
-0.011596289 0.021253442 -0.024264237 0.014898491 -0.023222256 0.010068232 -0.019936658 -0.02577666
-0.012439874 -0.01953645 0.0066136722 -0.045825187 -0.018870525 -0.0655998 -0.03211223 -0.044102415
-0.07756636 -0.04798538 -0.013311016 -0.01490024 -0.04939459 -0.049752418 -0.012582917 -0.028774634
0.00106233 0.00036918 0.040947165 0.046200443 0.034511324 0.068952054 0.06059612 0.017144231
0.017510569 -0.002082821 0.008184651 -0.0069295913 -0.025934879 -0.05698899 -0.018893741 -0.07038891
0.008574103 -0.02023427 -0.00020180352 0.012503152 -0.0094064055 0.03373446 0.022888679 0.047716573
0.0175868 0.0027202312 0.06626175 0.07741837 0.059324455 0.021388995 0.009907756 -0.033520415
-0.04980851 -0.07340219 -0.04333194 -0.08884332 -0.06411947 -0.05552556 -0.038405895 -0.06838729
-0.045232624 -0.06575475 0.0014655946 0.0357167 0.09522924 0.10110219 0.099937916 0.11509076
0.11303468 0.0930717 0.08447671 0.072401285 0.0018843183 -0.018161735 -0.069999516 -0.0770434
-0.088213764 -0.03458726 -0.050016847 -0.035893966 -0.051831067 0.017286355 0.012440859 -0.008317545
-0.020379964 -0.032849237 -0.016929317 7.731025e-05 0.00027596473 -0.0041620596 0.032839783 0.059777677
0.11338254 0.08059789 0.09118061 0.08367751 0.13765936 0.13039061 0.088340566 0.07363118
0.054342564 0.060578305 0.01208044 -0.03271897 -0.018122425 -0.042666364 -0.120188124 -0.11919083
-0.087101206 -0.082816385 -0.04862128 -0.042766854 -0.06120504 -0.056473024 -0.010082803 -0.03970921
0.10074651 0.121649235 0.032041334 -0.014729179 -0.05077417 -0.061852865 -0.11270993 -0.12443488
-0.13518013 -0.14763816 -0.11249474 -0.12668782 -0.08817836 -0.08006391 -0.049592685 -0.024599437
0.015781237 0.041895922 0.053311773 0.08822957 0.061118443 0.08901099 0.098903105 0.071032986
0.06413401 0.023851763 0.014356967 -0.0012621449 -0.0033670662 -0.049927514 -0.028669916 -0.003200831
-0.047629252 -0.0508884 -0.03223113 -0.040822282 -0.05880843 -0.030495204 0.005132045 0.024878955
0.07137277 0.053525623 0.046734337 0.05790789 0.06414431 0.06958808 0.049816478 0.023171669
0.037551094 0.044984568 0.033819918 0.00094796985 0.051052917 0.012926594 0.060566746 -0.00080039783
0.00018976978 -0.03268695 -0.0326378 -0.022165554 -0.06853167 -0.060736056 -0.019294228 0.004449157
-0.007281079 0.044725884 0.08394844 0.06809462 0.06430452 0.0992074 0.12228936 0.13540445
0.08995901 0.09130422 0.13135004 0.14328906 0.13548394 0.12163644 0.118887216 0.07302881
-0.05878632 -0.09560843 -0.03239254 0.01328272 0.111109115 0.120912395 0.11337888 0.11366732
0.08145436 0.05315903 0.045660634 0.04310475 0.09208866 0.090293124 0.09072565 0.07007353
0.049167994 0.03648756 0.08385249 0.114374846 0.12728888 0.08679551 0.081292465 0.08042573
0.0789889 0.04507523 0.021389393 0.0096068755 -0.0147803 -0.017762864 0.028136188 0.047680866
0.039418243 0.046870712 0.046276577 -0.030932441 -0.03532053 -0.045736086 0.0004824704 -0.0043126266
0.051316485 0.033172686 0.034249417 0.0005085778 0.030233802 0.0521225 0.0056863604 0.03265041
0.015872745 0.025519358 0.050667834 0.038081277 0.04977168 0.1060791 0.12476267 0.1502941
00000000: 5dfe 3dbc b31b ae3c cbc5 c6bc cd18 743c
00000010: 9a3c bebc 3af5 243c 3452 a3bc 9329 d3bc
00000020: 9dd0 4bbc e80a a0bc 81b7 d83b 31b3 3bbd
00000030: 5c96 9abc 3059 86bd 1d88 03bd bca4 34bd
00000040: 1ddb 9ebd 518c 44bd 7316 5abc 2320 74bc
00000050: fb51 4abd 31c9 4bbd 9428 4ebc c8b8 ebbc
00000060: e13d 8b3a 808e c139 37b8 273d ad3c 3d3d
00000070: bf5b 0d3d bc36 8d3d a333 783d 0f72 8c3c
00000080: 5372 8f3c f07f 08bb ea18 063c a011 e3bb
00000090: 6275 d4bc 4a6d 69bd 0cc7 9abc 1028 90bd
000000a0: 657a 0c3c 57c2 a5bc 389b 53b9 05da 4c3c
000000b0: 531d 1abc 252d 0a3d 0a81 bb3c 7472 433d
000000c0: 3112 903c e845 323b 3eb4 873d 868d 9e3d
000000d0: 33fe 723d f937 af3c 2454 223c b44c 09bd
000000e0: 0204 4cbd e353 96bd d57c 31bd 7df3 b5bd
000000f0: 1251 83bd c56e 63bd 804f 1dbd a30e 8cbd
00000100: d845 39bd 6daa 86bd 3219 c03a ad4b 123d
00000110: 8c07 c33d aa0e cf3d 40ac cc3d b4b4 eb3d
00000120: ba7e e73d 609c be3d 2002 ad3d 2047 943d
00000130: 3bfb f63a ebc7 94bc e85b 8fbd eec8 9dbd
00000140: 6ba9 b4bd 5fab 0dbd 77de 4cbd 8d05 13bd
00000150: d04c 54bd 1d9c 8d3c bfd4 4b3c 5046 08bc
00000160: e2f3 a6bc ec8c 06bd 5aaf 8abc a021 a238
00000170: 5caf 9039 e361 88bb 0283 063d 70d9 743d
00000180: 1b35 e83d 8210 a53d e6bc ba3d 1d5f ab3d
00000190: 93f6 0c3e 1e85 053e e6eb b43d f2cb 963d
000001a0: 4f96 5e3d f520 783d 0aed 453c 5404 06bd
000001b0: 7b75 94bc edc2 2ebd 3125 f6bd 521a f4bd
000001c0: 1e62 b2bd a39b a9bd 1b27 47bd 4c2c 2fbd
000001d0: 23b2 7abd 4250 67bd 5732 25bc 20a6 22bd
000001e0: 3054 ce3d 3c23 f93d c63d 033d a852 71bc
000001f0: 93f8 4fbd 6e59 7dbd 77d4 e6bd b7d7 febd
00000200: a96c 0abe 752e 17be a463 e6bd 74ba 01be
00000210: db96 b4bd 8cf8 a3bd b321 4bbd c284 c9bc
00000220: a747 813c 0f9b 2b3d 725d 5a3d b4b1 b43d
00000230: 5557 7a3d 654b b63d b68d ca3d be79 913d
00000240: b158 833d c664 c33c 7c39 6b3c 8e6e a5ba
00000250: ffa9 5cbb cb80 4cbd 2cdd eabc 08c5 51bb
00000260: e416 43bd 5b70 50bd ca04 04bd 4435 27bd
00000270: 1ce1 70bd 14d1 f9bc b72a a83b f3ce cb3c
00000280: e32b 923d af3d 5b3d 816c 3f3d d330 6d3d
00000290: 185e 833d 3284 8e3d 5d0c 4c3d 83d2 bd3c
000002a0: 2dcf 193d bd41 383d c186 0a3d 2e81 783a
000002b0: dd1c 513d 11ca 533c d614 783d cad1 51ba
000002c0: f0fc 4639 c0e2 05bd 37af 05bd 8994 b5bc
000002d0: 555a 8cbd 5fc6 78bd ee0e 9ebc 3cca 913b
000002e0: 1e96 eebb 7d32 373d 29ed ab3d 3175 8b3d
000002f0: 17b2 833d 402d cb3d d872 fa3d 77a7 0a3e
00000300: 6e3c b83d b5fd ba3d a080 063e 5eba 123e
00000310: 4dbc 0a3e 871c f93d 247b f33d 2190 953d
00000320: edc9 70bd 5ace c3bd 0aae 04bd c49f 593c
00000330: 2d8d e33d eba0 f73d 3033 e83d 69ca e83d
00000340: 8bd1 a63d 48bd 593d a506 3b3d 9b8e 303d
00000350: fb98 bc3d 9aeb b83d 5fce b93d b682 8f3d
00000360: 6164 493d fb73 153d dbba ab3d 5c3d ea3d
00000370: 0458 023e d8c1 b13d aa7c a63d 3fb6 a43d
00000380: efc4 a13d cea0 383d cf38 af3c 2866 1d3c
00000390: 1229 72bc 6d83 91bc dd7d e63c 034d 433d
000003a0: 0675 213d 81fb 3f3d 828c 3d3d 0866 fdbc
000003b0: 43ac 10bd c355 3bbd 15f4 fc39 ef50 8dbb
000003c0: 3c31 523d 15e0 073d 1e49 0c3d 1452 053a
000003d0: e1ac f73c 677e 553d a654 ba3b 70bc 053d
000003e0: 8f07 823c f90d d13c 1389 4f3d 1dfb 1b3d
000003f0: 64dd 4b3d 0040 d93d 9283 ff3d b2e6 193e

bias f4 [70]
-0.08692658 -0.06769694 -0.032797262 -0.06081278 -0.04888366 -0.09761997 -0.0013881768 -0.063174754
-0.04974915 -0.11601518 -0.07451952 -0.02962682 -0.017298108 -0.057016823 -0.0982986 -0.07507416
-0.059400693 -0.05846843 -0.06263425 -0.07869942 -0.014756325 -0.078423835 -0.032093048 -0.024581218
-0.05404468 -0.068107605 -0.07920109 -0.039059505 -0.096050404 -0.021178178 -0.03583201 -0.10399299
-0.052621037 -0.054786697 -0.0736214 -0.06911914 -0.06707661 -0.063527755 -0.059566267 -0.07182431
-0.033132453 -0.0042492277 -0.043972358 -0.051668443 0.0152497925 0.0009500262 -0.049924403 -0.04952678
-0.09100798 -0.026562411 -0.03520108 -0.06769128 -0.025310142 -0.059784755 -0.057599436 -0.040863454
-0.06533202 -0.09661984 -0.035427507 -0.071809515 -0.053548492 -0.058739714 -0.11727686 -0.05045254
-0.056211025 -0.08068177 -0.084602736 -0.024503112 -0.036074683 -0.11053246
00000000: 9006 b2bd b1a4 8abd 6c56 06bd d216 79bd
00000010: 3c3a 48bd fbec c7bd 7cf3 b5ba c461 81bd
00000020: c4c5 4bbd 5e99 edbd b19d 98bd f2b3 f2bc
00000030: c3b4 8dbc 798a 69bd c750 c9bd 7bc0 99bd
00000040: 244e 73bd 987c 6fbd 6346 80bd 292d a1bd
00000050: 83c4 71bc ad9c a0bd 0074 03bd 8d5e c9bc
00000060: f45d 5dbd 007c 8bbd 2e34 a2bd dcfc 1fbd
00000070: 13b6 c4bd dc7d adbc 96c4 12bd 47fa d4bd
00000080: 2889 57bd 0468 60bd d1c6 96bd 568e 8dbd
00000090: 765f 89bd d71a 82bd c2fb 73bd a018 93bd
000000a0: e5b5 07bd 1b3d 8bbb 5c1c 34bd 4aa2 53bd
000000b0: 44da 793c 2e0b 793a 887d 4cbd 98dc 4abd
000000c0: 6462 babd 6a99 d9bc 022f 10bd baa1 8abd
000000d0: 3757 cfbc dce0 74bd 63ed 6bbd 7060 27bd
000000e0: cbcc 85bd 9fe0 c5bd 6f1c 11bd de10 93bd
000000f0: aa55 5bbd 0e99 70bd da2e f0bd 53a7 4ebd
00000100: 883d 66bd 7c3c a5bd 3344 adbd c0ba c8bc
00000110: 0cc3 13bd d85e e2bd

weight f4 [14, 105]
0.070306696 0.0029936358 0.1301542 0.08561819 0.06765144 -0.040022776 0.062270753 0.005805645
-0.066398196 -0.07182436 -0.108147226 -0.054509934 -0.14621492 -0.017365817 -0.051946886 -0.030006835
-0.03169641 0.08036419 -0.08221701 0.07229779 0.07677586 0.03117819 -0.018012447 0.11941838
-0.08114594 0.09552169 -0.0028420165 0.083503366 -0.049427193 0.0070380834 -0.07818186 -0.07670859
0.031335708 -0.033305246 -0.05830763 0.081617825 0.04738829 0.006486268 -0.14244743 -0.07217074
0.100568816 0.0092137335 0.03165789 0.046069223 0.19274183 -0.044709433 -0.004039261 -0.049054384
-0.009990823 0.042746775 -0.046257947 0.11148817 0.010060651 -0.053458303 -0.09759988 -0.06278606
-0.09299462 -0.13924761 -0.1857085 -0.06484945 0.12346379 0.071826674 -0.03659102 0.01276962
-0.04191786 0.1137845 0.11849794 -0.02025239 -0.052874982 0.055990525 -0.06186802 0.025559867
-0.07694307 0.0590854 0.018633675 0.018672857 -0.058807164 -0.054647543 0.15336463 0.05568117
-0.05303927 0.083769515 -0.11257977 -0.046627313 0.049087647 0.025449658 0.047024783 -0.012355023
-0.09998941 -0.002386178 -0.10226515 0.0007411102 -0.021762982 0.07794793 -0.09929998 -0.0036274702
-0.015435096 -0.103926435 -0.042097237 -0.039447375 0.04420866 0.09898957 -0.00029808262 -0.070365414
0.054894384 -0.041165575 0.09870369 0.073282324 0.0011108425 -0.05971976 0.20444039 0.10673095
-0.086218014 0.008838747 0.050684534 -0.0804876 -0.063062504 0.03331199 -0.036765795 0.12067445
0.030676184 -0.00590572 -0.07495654 -0.043021284 -0.06375857 -0.037791423 -0.028308947 0.10566449
-0.062552355 -0.041182388 -0.01339884 -0.039982915 -0.1411302 -0.024986 -0.0012542142 -0.1426174
-0.09035159 0.022638485 -0.1883939 0.07970188 -0.042294953 -0.106511496 -0.012973657 0.06571248
0.049987506 0.10879988 0.0009379074 0.017094743 -0.12210648 0.07144342 0.1741282 0.0046351785
0.02938406 0.08248528 -0.1002492 -0.043653518 -0.008488596 0.06324652 -0.002088447 -0.1148614
-0.14896615 -0.009295106 -0.0028013997 -0.06609123 0.0073337485 -0.041277464 0.13622892 -0.10244637
0.0828958 -0.09265042 0.045815036 0.19897509 0.11163263 0.14965203 0.020987432 0.066943444
0.063567385 -0.0299132 -0.09229617 -0.078414194 0.08581547 0.08182238 -0.010725565 0.0029634214
-0.11387401 0.07021271 -0.002346113 0.07118299 -0.10704738 -0.020301761 -0.02599485 0.015582076
-0.08105048 -0.0988491 -0.029708436 0.008563446 0.10600501 -0.10266754 -0.0100903725 0.034191556
-0.07629648 0.12734778 -0.009280619 -0.033479456 0.13375036 0.013904221 -0.06199141 -0.08123762
0.030935453 -0.12788092 0.07754703 -0.045332156 0.1033988 0.12212912 0.09211342 -0.031811226
0.040490884 0.11786662 0.040478177 0.08887903 -0.03120449 0.10623919 0.011146384 0.08027405
0.03252069 -0.036156192 -0.05289509 0.031868942 -0.051493715 0.009272346 0.026336553 -0.05540437
-0.051986367 0.022716777 0.013338108 0.02942823 0.04752624 0.14371227 -0.1131342 -0.09752597
0.061513145 -0.082926944 0.123046674 0.021972433 -0.03968368 -0.09477536 -0.061214183 0.035230003
-0.0792487 -0.11984925 -0.047025118 0.13083278 0.11022415 -0.07456476 -0.061226774 0.07624007
00000000: f5fc 8f3d e030 443b 2547 053e 9758 af3d
00000010: d78c 8a3d ecee 23bd 9e0f 7f3d 483d be3b
00000020: c7fb 87bd a618 93bd 4b7c ddbd cf45 5fbd
00000030: 5db9 15be c242 8ebc 42c6 54bd e5d0 f5bc
00000040: 18d4 01bd fb95 a43d 6461 a8bd dd10 943d
00000050: a93c 9d3d 6769 ff3c d78e 93bc a091 f43d
00000060: d82f a6bd e0a0 c33d 2041 3abb d003 ab3d
00000070: 2b74 4abd b99f e63b d01d a0bd 6519 9dbd
00000080: df59 003d 156b 08bd fbd3 6ebd 3f27 a73d
00000090: 391a 423d c28a d43b bddd 11be 41ce 93bd
000000a0: 06f7 cd3d 33f5 163c b4ab 013d 15b3 3c3d
000000b0: 1d5e 453e 3d21 37bd c75b 84bb 40ed 48bd
000000c0: 8db0 23bc 3e17 2f3d f978 3dbd e953 e43d
000000d0: 6ed5 243c 18f7 5abd 72e2 c7bd fa95 80bd
000000e0: f773 bebd ed96 0ebe 5e2a 3ebe cacf 84bd
000000f0: 95da fc3d dd19 933d 77e0 15bd ab37 513c
00000100: 10b2 2bbd d907 e93d 0caf f23d 57e8 a5bc
00000110: 7093 58bd 5256 653d 5269 7dbd ed62 d13c
00000120: 5494 9dbd 8803 723d a6a5 983c d2f7 983c
00000130: c8df 70bd 1ad6 5fbd 9e0b 1d3e f011 643d
00000140: b53f 59bd 5a8f ab3d 3990 e6bd 48fc 3ebd
00000150: 2110 493d cd7b d03c 0f9d 403d b96c 4abc
00000160: 3fc7 ccbd 6c61 1cbb 6470 d1bd 1047 423a
00000170: 4848 b2bc 2aa3 9f3d ca5d cbbd daba 6dbb
00000180: 7ce3 7cbc 62d7 d4bd 276e 2cbd 9293 21bd
00000190: 2414 353d 0bbb ca3d f947 9cb9 be1b 90bd
000001a0: efd8 603d 3c9d 28bd 2925 ca3d 0b15 963d
000001b0: b099 913a b59c 74bd d258 513e c295 da3d
000001c0: 1293 b0bd 64d0 103c 969a 4f3d afd6 a4bd
000001d0: ea26 81bd 2772 083d bb97 16bd 2b24 f73d
000001e0: 9f4c fb3c c584 c1bb d082 99bd 1637 30bd
000001f0: da93 82bd 2ecb 1abd 2ae8 e7bc a066 d83d
00000200: 731b 80bd ddae 28bd cf86 5bbc 20c5 23bd
00000210: 6f84 10be 71af ccbc 7264 a4ba 4c0a 12be
00000220: 410a b9bd 5874 b93c 55ea 40be bd3a a33d
00000230: 793d 2dbd b322 dabd 768f 54bc 4494 863d
00000240: b3bf 4c3d 79d2 de3d e6dd 753a 460a 8c3c
00000250: f612 fabd ee50 923d aa4e 323e b2e2 973b
00000260: d7b6 f03c 0bee a83d 744f cdbd 08ce 32bd
00000270: c113 0bbc 6487 813d 54de 08bb 743c ebbd
00000280: 958a 18be 804a 18bc b097 37bb d75a 87bd
00000290: f14f f03b 8f12 29bd 987f 0b3e 67cf d1bd
000002a0: 46c5 a93d 81bf bdbd 8ca8 3b3d 20c0 4b3e
000002b0: a69f e43d 623e 193e d6ed ab3c a519 893d
000002c0: 9e2f 823d 870c f5bc c605 bdbd 9f97 a0bd
000002d0: 05c0 af3d 7e92 a73d 48ba 2fbc f635 423b
000002e0: c736 e9bd aecb 8f3d 3fc1 19bb 63c8 913d
000002f0: a83b dbbd e14f a6bc 27f3 d4bc f74b 7f3c
00000300: cbfd a5bd 6671 cabd 1b5f f3bc b24d 0c3c
00000310: 2819 d93d 5c43 d2bd 1752 25bc 720c 0c3d
00000320: 5441 9cbd 7567 023e bd0d 18bc c121 09bd
00000330: dbf5 083e 88ce 633c b4ea 7dbd e95f a6bd
00000340: 596c fd3c 37f3 02be fad0 9e3d 36ae 39bd
00000350: c0c2 d33d d51e fa3d f6a5 bc3d 7d4c 02bd
00000360: c5d9 253d 0e64 f13d 72cc 253d 3506 b63d
00000370: 8fa0 ffbc ef93 d93d 539f 363c b966 a43d
00000380: 6a34 053d 8418 14bd 86a8 58bd 0289 023d
00000390: 13eb 52bd 0aeb 173c c1bf d73c b1ef 62bd
000003a0: a8ef 54bd 8918 ba3c 1488 5a3c 7913 f13c
000003b0: e0aa 423d 4f29 133e e7b2 e7bd b2bb c7bd
000003c0: 35f5 7b3d 9ad5 a9bd e5ff fb3d 88ff b33c
000003d0: 5b8b 22bd 9519 c2bd b9bb 7abd 564d 103d
000003e0: 244d a2bd 8673 f5bd 699d 40bd 07f9 053e
000003f0: 33bd e13d 69b5 98bd edc8 7abd c123 9c3d

bias f4 [14]
0.012528053 0.07578448 -0.037803315 -0.07354303 0.10014304 0.0759432 0.026971724 0.067906775
0.036303554 -0.01766568 0.01668544 0.08603958 0.058764823 -0.031308644
00000000: 7642 4d3c e534 9b3d a6d7 1abd ba9d 96bd
00000010: cb17 cd3d 1c88 9b3d cef3 dc3c b512 8b3d
00000020: 09b3 143d 9eb7 90bc e7af 883c 8535 b03d
00000030: 62b3 703d 7e3d 00bd
