test_model.pt (torch_old, 404744 bytes, 6 tensors)

weight f4 [35, 1, 30, 10]
0	0x3d905df6	0.070491716
1	0xbc6d98dd	-0.0145017775
2	0x3c8c9d0c	0.01716473
3	0xbbea7d10	-0.007156022
4	0x3bfda9eb	0.007741203
5	0xbccda234	-0.025101759
6	0x3d092893	0.03348596
7	0x3a83c661	0.0010053628
8	0x3d00b9ad	0.031427074
9	0xbd14f153	-0.036362957
10	0x3b4584c8	0.0030138958
11	0xbd357dd6	-0.04430946
12	0x3c51ccf4	0.012805212
13	0xbd5e905c	-0.05433689
14	0xbd52a8e7	-0.05143061
15	0x3cf7b8cd	0.030239487
16	0x3cc2e362	0.023790065
17	0xbb656413	-0.0035002276
18	0xbbd0ebbf	-0.0063757594
19	0x3d0cd2b2	0.034380622
20	0xbdafa137	-0.08575671
21	0xbd8be98d	-0.06831656
22	0xbcd7a00b	-0.026321432
23	0xbc6b7532	-0.014371203
24	0xbdc403e1	-0.09571052
25	0xbddbaf7c	-0.1072683
26	0xba2c9a46	-0.0006584268
27	0xbd608d07	-0.054821994
28	0x3c19af17	0.009380124
29	0xbd369210	-0.04457289
30	0x3cccfca0	0.025022805
31	0x3d17d8a4	0.03707184
32	0xbbcdbf20	-0.0062788874
33	0xbc246626	-0.01003412
34	0xbda584a3	-0.08081939
35	0xbd90304a	-0.070404604
36	0xbdbfcd73	-0.09365358
37	0xbd3532e7	-0.044237997
38	0xbd96d7a8	-0.07365352
39	0xbddf8cba	-0.10915513
40	0xbc72d7f8	-0.014821999
41	0xbd126857	-0.035744037
42	0xbd3eede7	-0.0466136
43	0xbd245c06	-0.040126823
44	0xbcc2bf99	-0.023773002
45	0x3af183aa	0.001842608
46	0xbdb8c3ad	-0.09021697
47	0x3c13db69	0.009024479
48	0xbd2b9576	-0.041890584
49	0x3c870c82	0.016485456
50	0x3d74fc24	0.059810773
51	0x3cf6bda8	0.030119732
52	0x3b3d2d58	0.0028866138
53	0xbbfec467	-0.007774878
54	0x3d931ec3	0.07183602
55	0x3c544361	0.0129555175
56	0x3cdc1fdf	0.026870666
57	0x3d918afe	0.07106589
58	0xbb7f4b9c	-0.0038954979
59	0xbb0831cb	-0.0020781632
60	0x3cfc5422	0.030801836
61	0xbc3d3ac1	-0.011549653
62	0x3d6d6244	0.05795504
63	0xbd22e96a	-0.039773382
64	0x3d073713	0.033011507
65	0xbd511dca	-0.0510538
66	0x3cd6879a	0.026187707
67	0xbd028984	-0.031869426
68	0xbcdec68b	-0.027194282
69	0xbc224463	-0.009904
70	0x3d1dc06b	0.038513582
71	0xbca65828	-0.020305708
72	0xbbec262c	-0.007206699
73	0x3d111627	0.035421517
74	0xbd5010ac	-0.05079715
75	0xbcca7201	-0.024712564
76	0xbe072d0c	-0.13200778
77	0xbde58c7a	-0.112084344
78	0xbddb0de6	-0.1069601
79	0xbda98f29	-0.08279259
80	0x3b7ef7ec	0.0038905097
81	0xbcf99eba	-0.030471195
82	0x3d7a09b0	0.061044395
83	0x3d157c5c	0.03649555
84	0x3d3dd5d1	0.04634649
85	0xbcea10e6	-0.02857251
86	0xbc8005db	-0.015627792
87	0x3d06f6f6	0.032950364
88	0x3c59a600	0.013284206
89	0x3d31f48c	0.04344611
90	0xbb9121fd	-0.0044291005
91	0xbd11bc09	-0.035579715
92	0xbd82b5c1	-0.06382323
93	0xbc5a589d	-0.013326791
94	0xbd3606c9	-0.044440065
95	0xbdc08213	-0.0939981
96	0xbd342c72	-0.0439877
97	0xbd61c72b	-0.055121582
98	0xbd034316	-0.0320464
99	0xbe054940	-0.13016224
100	0xbd041bb8	-0.032252997
101	0x3c89398c	0.016751073
102	0xbceaf951	-0.028683336
103	0xbd8f59c3	-0.069995426
104	0xbd32d3af	-0.04365891
105	0xbd027151	-0.03184635
106	0xbb59e123	-0.0033245764
107	0xbc76be38	-0.01506
108	0xbccdf0b0	-0.025139183
109	0x3c1bba92	0.009504931
110	0xbd0168a2	-0.031593926
111	0xbb892236	-0.0041849865
112	0xbd11f43f	-0.03563332
113	0xbc57bc89	-0.013167509
114	0xbd09b289	-0.03361753
115	0xbe02b892	-0.1276572
116	0xbd1e52c4	-0.03865315
117	0xbdbd80a9	-0.092530556
118	0xbd206e4b	-0.039167684
119	0xbdbf7261	-0.09347988
120	0x3dabc807	0.083877616
121	0xbcbdc46b	-0.023164948
122	0xbbff4e17	-0.0077912915
123	0xbbd03a29	-0.0063545895
124	0x3ce138d1	0.027492912
125	0xbcc08bd1	-0.02350417
126	0xbd76640b	-0.060154002
127	0x3b0f8977	0.0021902004
128	0x3c978ac0	0.018498778
129	0xbc68851a	-0.01419189
130	0xbcca3ff6	-0.024688702
131	0xbd4619a8	-0.04836431
132	0xbcad3f93	-0.021148479
133	0xbb9ada29	-0.0047257137
134	0x3de6f320	0.11276841
135	0x3dccc45b	0.09998389
136	0x3daf2cda	0.08553477
137	0x3daa4e3a	0.08315702
138	0x3d9ed8bc	0.077561826
139	0x3d1d9113	0.03846843
140	0xbdcf73b4	-0.101294905
141	0xbc1749d9	-0.009233915
142	0xbd9c5da0	-0.07635045
143	0xbd3681e6	-0.044557475
144	0xbd428fb2	-0.04750032
145	0xbc7f9008	-0.015598305
146	0x3cc61b94	0.024183072
147	0xbd71a494	-0.058994845
148	0xb9a2e0da	-0.00031066575
149	0xbd6ff855	-0.058586437
150	0xbdb66b27	-0.089071564
151	0x3d08c097	0.033386793
152	0x3d422095	0.047394354
153	0x3d99e7fc	0.07514951
154	0x3b6604c3	0.0035098053
155	0x3cba0e21	0.022711815
156	0xbcdfabfa	-0.027303685
157	0xbbf12c55	-0.007360021
158	0xbd701f94	-0.058623865
159	0x3b5eb932	0.0033984897
160	0x3d080c10	0.03321463
161	0x3de4188c	0.111374944
162	0x3d031fa0	0.03201258
163	0x3d341e22	0.04397405
164	0x3c87cd46	0.016577374
165	0xbc91cae4	-0.017796941
166	0x3b28e06e	0.0025768536
167	0xbd967ed0	-0.07348406
168	0xbdc77fc1	-0.09741164
169	0x38bb1057	8.9198984e-05
170	0xbd0fa59e	-0.035070054
171	0x3da30877	0.07960599
172	0x3caaf889	0.020870464
173	0x3c6d5a6e	0.014486892
174	0xba5a56bc	-0.00083289645
175	0xbdabf787	-0.083968215
176	0xbd123a56	-0.035700165
177	0xbcc7fd67	-0.024412824
178	0xbd19e2e1	-0.037569884
179	0xbdad6346	-0.084662005
180	0x3b8decd5	0.004331211
181	0xbd570c8f	-0.05250221
182	0xbd3516c9	-0.044211183
183	0xbcf21460	-0.029550731
184	0xbd95f2ea	-0.07321723
185	0xbdb7bc08	-0.08971411
186	0xbe11a93f	-0.14224719
187	0xbe0d3168	-0.13788378
188	0xbd8945fb	-0.06702801
189	0xbcd938eb	-0.026516398
190	0x3c7ce26d	0.0154348435
191	0x3d401b21	0.046900872
192	0xbcbb449c	-0.022859864
193	0xbc4976a5	-0.0122963535
194	0xbd49f382	-0.049304493
195	0xbd9c3460	-0.07627177
196	0xbdcdb86e	-0.10044943
197	0xbd65de74	-0.05612035
198	0xbd3fd257	-0.046831455
199	0x3d6557d0	0.055991948
200	0x3c493da7	0.0122827655
201	0x3c974689	0.018466251
202	0xbc6375fb	-0.013883109
203	0xbd8d212d	-0.068910934
204	0xbdc82f58	-0.09774655
205	0xbd81786a	-0.06321795
206	0x3beef246	0.007292065
207	0x3d35e9f4	0.04441257
208	0x3cea2d59	0.028586077
209	0x3cf13ae7	0.029447032
210	0xbdb11ba5	-0.08647851
211	0xbd36b6f6	-0.04460808
212	0xbd8ec06e	-0.06970297
213	0xbd0323f4	-0.03201671
214	0xbc31e599	-0.010857963
215	0xbd8f8279	-0.070073076
216	0xbc95d050	-0.018287808
217	0xbc15076e	-0.00909601
218	0x3cae9584	0.021311529
219	0x3d65447b	0.05597351
220	0xbd4eb5e0	-0.05046642
221	0xbc28bdee	-0.010299189
222	0xbcfc5dd4	-0.03080646
223	0xbb58339b	-0.0032989744
224	0xbd217f85	-0.039428253
225	0x3c0b92d3	0.008518892
226	0xbc7915ec	-0.0152029805
227	0xbce614cb	-0.028086087
228	0x3d854e70	0.065091014
229	0x3d9910cb	0.07473906
230	0xbc87adb2	-0.016562317
231	0xbd17a4a6	-0.037022255
232	0xbdea5c11	-0.114433415
233	0xbd03fe0a	-0.032224692
234	0xbe00684c	-0.12539786
235	0xbdd46011	-0.10369886
236	0x3c8d9fdd	0.017288143
237	0x3d10c320	0.035342336
238	0x3d6853ab	0.056720417
239	0x3d433235	0.047655303
240	0xbce4bfc4	-0.027923472
241	0xbcc9fd05	-0.024656782
242	0xbd2fcb58	-0.042918533
243	0xbd67cc53	-0.056591343
244	0x3c9a5ede	0.018844064
245	0x3d3ef949	0.046624456
246	0x3d94cd00	0.07265663
247	0x3deb4442	0.114876285
248	0x3ca3a303	0.019975191
249	0x3ccf82cf	0.02533093
250	0xbdc160e0	-0.094423056
251	0xbd0e1869	-0.034691248
252	0xbce38794	-0.02777461
253	0xbd4ea2c7	-0.050448205
254	0xbddfef82	-0.10934354
255	0x3c866c20	0.01640898

bias f4 [35]
0	0xbd5c0295	-0.0537134
1	0x3d0bbcfe	0.034115784
2	0x3c10b8d9	0.008833134
3	0x3c873d83	0.016508823
4	0x3d3cc067	0.046081927
5	0xbc41a3b8	-0.011818819
6	0xbc3004f4	-0.010743368
7	0x3c6859f8	0.0141816065
8	0xbd99eb11	-0.075155385
9	0xbd2b198e	-0.041772418
10	0x3d03b5bb	0.032155734
11	0x3d0045b3	0.03131647
12	0x3d068d30	0.03284949
13	0x3b5cd12c	0.0033694012
14	0xbc9b7c1e	-0.018980082
15	0xbdd3a89c	-0.10334894
16	0x3c72c0ba	0.014816457
17	0xbd15a4a4	-0.036533967
18	0xbd02dfde	-0.031951778
19	0xbd29cd5b	-0.041455608
20	0x3d27aa3a	0.040933825
21	0x3d0945b8	0.033513755
22	0xbd3b22b6	-0.0456874
23	0x3bb35c15	0.0054736235
24	0xbce37408	-0.027765289
25	0x3c10d18b	0.008839021
26	0x3d190a55	0.03736337
27	0xba98fd97	-0.0011672255
28	0xbc1d42d1	-0.00959845
29	0xbcfea3c5	-0.03108395
30	0xbd127095	-0.035751898
31	0x3d2603a8	0.04053083
32	0xbd15cdde	-0.036573283
33	0xbba340b6	-0.0049820794
34	0xbd3806df	-0.044928428

weight f4 [70, 1, 30, 40]
0	0xbcd6f9a2	-0.026242081
1	0xbcfea753	-0.031085646
2	0xbd192e0c	-0.03739743
3	0xbc5d2301	-0.013497115
4	0xbceec3b2	-0.02914605
5	0xbb26f85e	-0.0025477628
6	0xbd3c774b	-0.046012204
7	0xbd0ca34d	-0.034335423
8	0x3b85b132	0.004079961
9	0xbc85635d	-0.016282732
10	0xbc633f6a	-0.0138701
11	0x3b891ff0	0.0041847154
12	0xb99a3f12	-0.0002942016
13	0x3c5c0ace	0.01343031
14	0xbcf57dbc	-0.029967181
15	0x3c46b053	0.012127
16	0x3b678e9a	0.00353328
17	0xbbd1457d	-0.0063864575
18	0xbb962575	-0.004582102
19	0x3bae7709	0.0053242487
20	0x3c4b2c78	0.012400739
21	0x3d1a9023	0.037735116
22	0x3d18c117	0.03729352
23	0xb9b42251	-0.00034357843
24	0x3c6bf08e	0.014400614
25	0x3bb606f5	0.0055550286
26	0x3d4056d3	0.046957802
27	0x39d6c72a	0.0004096565
28	0x3beffb09	0.007323627
29	0x3c3da026	0.011573827
30	0xbb30ca7f	-0.0026976166
31	0x3be23ce4	0.0069042314
32	0x3d0097c5	0.03139474
33	0x3cae78b2	0.021297786
34	0xbaa5593f	-0.0012615098
35	0x3c89faba	0.016843189
36	0x3c699298	0.014256142
37	0x3d0196cb	0.031637948
38	0x3c30cb29	0.010790625
39	0x3d0fe7c0	0.035133123
40	0x3cdae4fd	0.026720518
41	0x39d0fe8c	0.00039862504
42	0xba768427	-0.00094038475
43	0x3d41c655	0.047308285
44	0x3d6afc68	0.05736962
45	0x3db1a96c	0.08674893
46	0x3d71f90a	0.059075393
47	0x3d56d62c	0.052450344
48	0x3d308ee6	0.04310503
49	0x3c968509	0.018373983
50	0x3cf71a72	0.030163977
51	0x3b7adaf9	0.003827749
52	0x3cd89804	0.026439674
53	0xbc0a2758	-0.008432232
54	0x3c25f3f0	0.01012896
55	0xbc380d57	-0.011233649
56	0x3bf89877	0.0075865346
57	0x3c78124c	0.015141081
58	0xbc4f3230	-0.012646243
59	0xbc8ab121	-0.016930165
60	0x3c581bf8	0.013190262
61	0x3caf3253	0.021386301
62	0xbd10e542	-0.035374887
63	0xbc5ad5e3	-0.013356659
64	0x3ba642d5	0.005073885
65	0xbc68e32d	-0.014214319
66	0x3af2e725	0.0018532021
67	0x3c924f22	0.01786
68	0x3bb5e35c	0.005550785
69	0xbc727430	-0.014798209
70	0xbba95c87	-0.005168501
71	0xbb9dc476	-0.0048146797
72	0x3c6b1ce9	0.014350154
73	0x3bc4060b	0.0059821657
74	0x3c8c3a96	0.01711778
75	0x3b4b9dca	0.0031069391
76	0x3c1b5308	0.009480245
77	0x3c80e689	0.015734928
78	0x3d02360f	0.031789836
79	0x3ca0b804	0.019618995
80	0xbd48263f	-0.0488646
81	0xbda03b1e	-0.07823776
82	0xbdaff07d	-0.085907914
83	0xbcb7f72d	-0.02245673
84	0xbd45c94b	-0.04828767
85	0xbc9ff109	-0.019524114
86	0xbd0390de	-0.032120578
87	0xbce5b58e	-0.028040674
88	0xbd1d45fa	-0.038396813
89	0xba1aa2ed	-0.00058989116
90	0x3c525c43	0.01283938
91	0xbb7bc00d	-0.0038414032
92	0xbb5c6eb0	-0.003363531
93	0xbb64cdc1	-0.0034912678
94	0x3a8f2f38	0.0010924106
95	0xbc52a36f	-0.012856348
96	0xbd1b3630	-0.037893474
97	0xbc703ccb	-0.014662932
98	0xbc61ef8a	-0.013790021
99	0xbb0223c5	-0.0019857746
100	0xbc8e29cd	-0.017353917
101	0xbd8cc174	-0.06872836
102	0xbd9d0db1	-0.07668627
103	0xbd88f62f	-0.06687581
104	0xbd581123	-0.052750718
105	0xbd3c3935	-0.045952994
106	0xbd069558	-0.03285727
107	0xbda37abf	-0.07982396
108	0xbdc0fc88	-0.094231665
109	0xbdbe7476	-0.09299557
110	0xbd6c9e3a	-0.057768084
111	0xbdd423d4	-0.10358396
112	0xbd413f78	-0.04717967
113	0xbd2ea182	-0.042634495
114	0xbd85d562	-0.0653484
115	0xbd507620	-0.050893903
116	0xbc44a2a9	-0.012001672
117	0xbd520467	-0.05127373
118	0xbd5eb9e1	-0.054376487
119	0xbbbda445	-0.0057874047
120	0x3d73d76c	0.059531614
121	0x3dac92f1	0.08426464
122	0x3d972404	0.07379916
123	0x3db2be84	0.08727744
124	0x3d300d7f	0.04298162
125	0x3d30b012	0.043136664
126	0x3c65c55d	0.014024106
127	0x3d557e4b	0.052122395
128	0x3ccc8a33	0.024968242
129	0x3cb97371	0.022638055
130	0x3b6eedf2	0.0036457744
131	0xbcc56286	-0.024094831
132	0xbaf8a214	-0.0018969201
133	0xbd187a69	-0.037226114
134	0xbd65ce8b	-0.056105178
135	0x3bdbd8a2	0.0067091743
136	0xbbd113e5	-0.0063805454
137	0x3b06c9cb	0.0020567055
138	0x3bd92c4a	0.006627594
139	0x3bb0b00d	0.0053920806
140	0xbd55ab17	-0.052165117
141	0xbc8cf4d2	-0.017206583
142	0xbcd0cbf3	-0.025487876
143	0xbc4b7382	-0.012417676
144	0xbb665bc1	-0.0035149904
145	0xbb1dedd6	-0.002409806
146	0xbd27be38	-0.04095289
147	0xbd3efb95	-0.046626646
148	0xbc68b96d	-0.014204365
149	0xbc941041	-0.018074157
150	0xbd7af6cb	-0.061270516
151	0xbc57e3de	-0.013176886
152	0xbc9ad10d	-0.018898511
153	0xb873ca30	-5.8124017e-05
154	0xbd2e1f40	-0.04251027
155	0xbb954668	-0.004555512
156	0xbd5642f0	-0.05230993
157	0xbd148865	-0.03626289
158	0x3c34c74e	0.011033846
159	0x3ca07931	0.019589039
160	0xbbc6b089	-0.006063525
161	0x3d0af666	0.03392639
162	0x3d2b71fb	0.041856747
163	0x3d37434d	0.044741917
164	0x3cf45c5e	0.0298292
165	0x3ca4a306	0.020097267
166	0x3ce19020	0.027534544
167	0x3c61e790	0.013788119
168	0x3d1cf607	0.038320567
169	0xbc9e172d	-0.01929816
170	0xbb0ce5f4	-0.0021499367
171	0xbcc6c908	-0.024265781
172	0x3c1878aa	0.009306112
173	0xbc927084	-0.017875917
174	0xbc26f1d7	-0.010189495
175	0x3b89818e	0.0041963523
176	0xbc223308	-0.009899862
177	0xbc2b2bf4	-0.010447491
178	0x3cf302f2	0.02966449
179	0x3c99a4bd	0.018755311
180	0x3cc6ddb0	0.02427563
181	0x3d0e69a0	0.0347687
182	0xbc17ea00	-0.009272099
183	0xbcc263e2	-0.023729268
184	0xbba6fcdd	-0.0050960616
185	0xbc5a4e02	-0.013324263
186	0xbd16d039	-0.03681967
187	0xbc87f42c	-0.016595922
188	0x3cd1b030	0.025596708
189	0x3c9c07cf	0.019046692
190	0x3c8daaee	0.01729342
191	0x3cb35a5d	0.021893675
192	0xbc619904	-0.013769392
193	0x3c6fb388	0.014630206
194	0xbc79bbaf	-0.015242501
195	0xbd0bcbd8	-0.034129947
196	0xbd3bdd03	-0.04586507
197	0x3bb0b346	0.005392465
198	0xbd15d488	-0.03657964
199	0xbcf44ee1	-0.029822769
200	0x3ca1d510	0.019754916
201	0xbd0bb322	-0.03410638
202	0xbcb1903c	-0.021675222
203	0xbd20b406	-0.039234184
204	0xbc6af29c	-0.014340069
205	0xbc3d8843	-0.011568132
206	0x3c9611ea	0.018319089
207	0x3d1095d0	0.035299122
208	0x3c65fb15	0.014036913
209	0x3c073503	0.008252385
210	0x3bac3a7c	0.0052559953
211	0x3d68b38a	0.056811847
212	0x3d58fc34	0.052974895
213	0x3d12e437	0.035862174
214	0x3dbf81c2	0.09350921
215	0x3dcb7f85	0.09936432
216	0x3da28545	0.079355754
217	0x3d8ea0ed	0.06964288
218	0x3d9984ce	0.074960336
219	0x3da12756	0.07868831
220	0x3cb7bd14	0.022429027
221	0x3d35fb67	0.04442921
222	0x3d6b48f0	0.057442605
223	0x3d13bf8d	0.03607135
224	0x3cb83c9b	0.022489836
225	0xbced533d	-0.028970355
226	0xbc8951aa	-0.016762573
227	0xbd589007	-0.05287173
228	0xbd22e550	-0.03976947
229	0xbd3d1552	-0.04616291
230	0xbd6ad580	-0.057332516
231	0xbdd7a359	-0.10529203
232	0xbdd7a115	-0.10528771
233	0xbdc6b37b	-0.09702202
234	0xbd78b5cf	-0.06072026
235	0xbdcb1917	-0.09916895
236	0xbd94e2a9	-0.072697945
237	0xbd6d040b	-0.057865184
238	0xbd826ff1	-0.063690074
239	0xbd1eae48	-0.038740426
240	0x3d85d570	0.065348506
241	0x3d7e9723	0.062155854
242	0x3d568834	0.052375987
243	0x3d38e1d0	0.045137227
244	0x3cf35df3	0.029707884
245	0x3d45c241	0.048280958
246	0x3cf150b8	0.029457435
247	0x3d42c683	0.047552597
248	0x3cc3db88	0.023908392
249	0xbc0ec951	-0.00871499
250	0x3d6cd783	0.057822715
251	0x3d090c3f	0.033458944
252	0x3cdbd215	0.026833573
253	0x3c4b532b	0.0124099655
254	0x3ca38c26	0.019964289
255	0x3c0b5749	0.008504697

bias f4 [70]
0	0xbd51132b	-0.05104367
1	0xbd4ee569	-0.05051175
2	0xbd154d66	-0.036450766
3	0x3badcc53	0.0053038984
4	0xbd5098b8	-0.050926894
5	0xbc1def07	-0.009639508
6	0xbbe4bde8	-0.0069806464
7	0xbcc7ddd2	-0.024397764
8	0xbce4159a	-0.027842332
9	0xbcde8000	-0.027160645
10	0xbc761d07	-0.015021569
11	0xb90f0902	-0.00013640898
12	0x3c0aa8b6	0.008463075
13	0x3c8b1976	0.016979914
14	0x3c3e33fa	0.011609072
15	0x3d1e418f	0.03863674
16	0x3ba73bab	0.0051035485
17	0xbc0590da	-0.008152211
18	0xbd0a2345	-0.033725042
19	0x3d1e5558	0.03865561
20	0xbc708bb3	-0.014681744
21	0xbce18ecc	-0.027533911
22	0xbd3f1495	-0.046650488
23	0x3b9f0168	0.0048524626
24	0x3d18ed13	0.037335467
25	0x3cb53ec7	0.022124661
26	0xbd3de039	-0.046356414
27	0xbc1fb7ff	-0.009748458
28	0x3c1c57d5	0.009542425
29	0xbd9625e6	-0.07331447
30	0xbc85922a	-0.016305048
31	0xbd3ab820	-0.04558575
32	0x3bea3c6b	0.0071483157
33	0x3cdac057	0.026703043
34	0xbd2b8cc2	-0.041882284
35	0xbca25954	-0.019817986
36	0xbc887301	-0.0166564
37	0xbd1752a3	-0.036944043
38	0xbc8d4ed3	-0.0172495
39	0x3b2de4ae	0.0026534009
40	0xbd42432f	-0.047427353
41	0x3cd7aab0	0.026326507
42	0xbbcad0e1	-0.006189451
43	0xbcaa241a	-0.020769168
44	0x3c9c8474	0.019106127
45	0x3bdbd7f5	0.0067090937
46	0xbd2632b0	-0.040575683
47	0xbba19632	-0.0049312348
48	0xbc0cf00d	-0.008602154
49	0x3bafc5df	0.0053641642
50	0xbd4f7744	-0.05065085
51	0xbc1e31fc	-0.009655472
52	0xbcc6ce66	-0.02426834
53	0xbcc8afc5	-0.024497876
54	0xba1bfa0b	-0.000595004
55	0xbd2deab7	-0.04246017
56	0xbc525dd6	-0.012839755
57	0x3ca1c512	0.01974729
58	0xbc293897	-0.0103284335
59	0x3b58defa	0.0033091889
60	0xbc3152eb	-0.010822992
61	0xbd634455	-0.05548509
62	0xbc184370	-0.009293422
63	0xbc6612f9	-0.014042609
64	0xbcd9173b	-0.026500335
65	0xbd2c4938	-0.042062014
66	0x3cb1a6dd	0.021686012
67	0xbd60efeb	-0.054916304
68	0x3bd415f4	0.0064723436
69	0x3bcf56df	0.0063274945

weight f4 [14, 105]
0	0xbdb3a77b	-0.08772179
1	0xbcafcfb0	-0.021461338
2	0x3c8eb288	0.017419115
3	0xbd0df43a	-0.03465674
4	0xbd647e64	-0.055784598
5	0x3c3020b0	0.010749981
6	0x3ce77814	0.0282555
7	0xbcb9e6c0	-0.022693038
8	0xbbec0920	-0.007203236
9	0x3d7e635e	0.062106483
10	0xbca5a284	-0.020219095
11	0x3daf3255	0.08554522
12	0xbdb17d6a	-0.08666499
13	0xbb52e680	-0.0032180846
14	0x3d133d62	0.03594721
15	0xbce0abdc	-0.027425699
16	0xbd030d20	-0.03199494
17	0x3d0b2246	0.033968233
18	0xbca5e890	-0.020252496
19	0x3ce84754	0.028354324
20	0xbd7bb5ae	-0.06145256
21	0xbd4629bd	-0.04837965
22	0xbd860a08	-0.06544882
23	0x3d343e5e	0.04400479
24	0xbd8c2f09	-0.06844909
25	0xbc3179d0	-0.010832265
26	0x3d226bfe	0.03965377
27	0x3d86cbd3	0.06581845
28	0x3d2721fa	0.040803887
29	0xbdab0e64	-0.08352354
30	0xbdb4bc21	-0.08824945
31	0xbcb14a68	-0.021641925
32	0xbd196057	-0.037445392
33	0x3cdd4864	0.027012058
34	0x3cc77eec	0.024352513
35	0x3db08535	0.08619157
36	0xbcc86700	-0.024463177
37	0xbb60e920	-0.003431864
38	0xbdae6eee	-0.08517252
39	0x3ce71164	0.028206535
40	0x39b4dc00	0.00034496188
41	0xbd84360a	-0.0645562
42	0x3d950e03	0.07278063
43	0xbd81863a	-0.0632443
44	0xbdbfabac	-0.09358916
45	0xbd8434d0	-0.06455386
46	0xbbc7a9f0	-0.006093256
47	0x3cc3489c	0.023838334
48	0xbd8cff78	-0.06884664
49	0xbc84218c	-0.016129278
50	0x3d47c982	0.048776157
51	0xbd81e4d0	-0.06342471
52	0xbbc17d30	-0.005904816
53	0xbdb266d8	-0.08711022
54	0xba0d9c00	-0.0005401969
55	0x3d95d09d	0.073151805
56	0x3ca95e64	0.020674892
57	0xbd0bae90	-0.034102023
58	0xbc9fec54	-0.01952187
59	0xbc5b9640	-0.013402522
60	0xbda54e06	-0.080715224
61	0x3cd2ec54	0.025747456
62	0xbd08a158	-0.033356994
63	0xbc958e30	-0.018256277
64	0xbd493e41	-0.049131636
65	0xbd8c63c2	-0.06854965
66	0x3d9777f9	0.0739593
67	0xbd40d132	-0.047074504
68	0xbd110211	-0.03540236
69	0xbdb9585d	-0.09050057
70	0x3c0681c0	0.008209646
71	0xbdb8e866	-0.090287015
72	0xbdb36ac6	-0.087606
73	0x3ce0ce74	0.027442195
74	0x3d559946	0.052148126
75	0x3dbe3e09	0.09289176
76	0xbd6264e9	-0.055272017
77	0x3d7d80e2	0.06189049
78	0x3b265120	0.0025377944
79	0x3d46cc62	0.04853476
80	0xbd9b74b1	-0.075906165
81	0x3d85c101	0.06530953
82	0xbdb8536e	-0.09000288
83	0xbd52e93c	-0.05149196
84	0x3d9d43fb	0.07678982
85	0x3d8941ab	0.06701978
86	0xbb85fe00	-0.004089117
87	0x3d8ef635	0.06980554
88	0xbcf6d81c	-0.030132346
89	0x3db6e5e3	0.08930566
90	0xbd2ef2cd	-0.04271202
91	0xbca7bb1c	-0.020474963
92	0x3dc1b2d7	0.09457939
93	0xbd590404	-0.052982345
94	0xbdaf62b9	-0.08563752
95	0xbd301924	-0.042992726
96	0xbc9bcc80	-0.019018412
97	0xbc2a0880	-0.010378003
98	0x3d0f54ba	0.03499291
99	0xbd1f4527	-0.03888431
100	0x3d90e6e1	0.07075287
101	0x3d20bb2e	0.03924101
102	0xbd89f821	-0.0673678
103	0x3da59d57	0.08086651
104	0x3d170856	0.036873184
105	0x3d3603bf	0.044437166
106	0x3d3fe22f	0.046846565
107	0xbd031c71	-0.032009546
108	0xbdcffb24	-0.10155323
109	0x3c7a0c7b	0.015261765
110	0x3d13fb12	0.03612811
111	0xbbadedf3	-0.005307907
112	0x3da4c183	0.08044722
113	0x3da4feb5	0.08056394
114	0xbc98a2ef	-0.01863238
115	0xbd63735c	-0.055529937
116	0xbd560d4d	-0.05225878
117	0xbd969028	-0.073517144
118	0xbcc9a4fb	-0.024614802
119	0xbba11324	-0.004915612
120	0xbdad685e	-0.08467172
121	0x3d8a21bf	0.06744718
122	0x3dc3f3f3	0.09568014
123	0xbdb27972	-0.0871457
124	0x3da3965b	0.079876624
125	0x3d1a4d07	0.037671115
126	0x3c8c0435	0.01709185
127	0xbca0adcf	-0.019614128
128	0x3d9149bb	0.07094141
129	0x3d81020d	0.06299219
130	0xbdbb6c9b	-0.09151574
131	0x3db168c3	0.0866256
132	0x3d67688f	0.0564962
133	0x3ce28f06	0.02765609
134	0x3d94357f	0.07236766
135	0x3ca56ebd	0.020194406
136	0x3ca1ca42	0.019749764
137	0xbd8e28d4	-0.06941381
138	0xbc88bcb1	-0.016691538
139	0x3d0aa73f	0.033850905
140	0xbdcbbfb8	-0.09948677
141	0xbd72e774	-0.059302762
142	0x3c72186b	0.0147763295
143	0x3d52f2c3	0.051501047
144	0x3c2ae28f	0.010429992
145	0x3d7fc2a1	0.062441472
146	0x3d4b7e0f	0.049680766
147	0xbd8e06d8	-0.06934899
148	0x3da8b857	0.08238285
149	0xbd06a7de	-0.032874934
150	0x3d8d078f	0.06886207
151	0xbce21bcb	-0.027601143
152	0xbd544a5a	-0.05182872
153	0x3d16750f	0.03673273
154	0xbcc80cd8	-0.024420187
155	0xbd8c3fcc	-0.06848106
156	0xbd019148	-0.03163269
157	0xbcbadd14	-0.022810496
158	0x3c33bea7	0.010970748
159	0x3d872e15	0.06600586
160	0x3d6cf22e	0.057848148
161	0x3d47448b	0.048649352
162	0xbca7a99b	-0.020466616
163	0xbd26fa13	-0.040765833
164	0xbd5022d4	-0.050814465
165	0x3d140a5b	0.03614269
166	0x3da504f7	0.080575876
167	0x3d81dd87	0.06341081
168	0x3db7c505	0.08973125
169	0xbd429b3d	-0.047511328
170	0x3d9e63ff	0.077339165
171	0x3d63d8c2	0.05562664
172	0x3ca1907c	0.019722216
173	0xbdbc40c1	-0.09192038
174	0xbc56dbb1	-0.013113902
175	0xbd43bf72	-0.04779
176	0x3d999b51	0.075003274
177	0xbdacb7f9	-0.084335275
178	0xbda6959a	-0.08134003
179	0xbcf666e8	-0.030078366
180	0x3c35faaf	0.011107131
181	0xbb0e9025	-0.0021753397
182	0x3d18e24b	0.037325185
183	0xbdcff08b	-0.10153302
184	0x3c8906d8	0.016726896
185	0x3d208c1f	0.03919613
186	0xbc421180	-0.011844993
187	0x3cb20f4d	0.021735812
188	0xbc38d1a0	-0.011280447
189	0xbc4a0599	-0.012330436
190	0xbca6105c	-0.020271473
191	0xbdb6d3c9	-0.089271136
192	0xbc19654a	-0.009362528
193	0x3bec52df	0.0072120274
194	0xbb0a96a8	-0.0021146927
195	0x3da95e2b	0.08269914
196	0x3d16e77f	0.036841866
197	0x3b2ba85a	0.0026192875
198	0x3da208cd	0.07911835
199	0xbd953fcc	-0.07287559
200	0x3b98a699	0.004658532
201	0x3da80f23	0.08206012
202	0x3d2bc827	0.041938927
203	0x3d5197cf	0.051170167
204	0xbd9832f5	-0.07431594
205	0x3cccf9e6	0.025021505
206	0xbd30655d	-0.043065418
207	0x3c0550a0	0.008136898
208	0xbd1598d5	-0.036522705
209	0x3d83cc89	0.06435496
210	0xbd862610	-0.065502286
211	0x3cccc0f4	0.024994351
212	0xbcee723c	-0.029107206
213	0x3d5cf71a	0.053946592
214	0x3cb6cc38	0.022314176
215	0xbd87d16a	-0.066317394
216	0xbccb1a2c	-0.024792753
217	0x3d123b3e	0.03570103
218	0x3d4155ee	0.04720109
219	0x3a9748c0	0.0011542067
220	0xbca7dd60	-0.020491302
221	0x3c0db2d8	0.008648597
222	0xbdc53fbc	-0.09631297
223	0x3c5c0620	0.013429195
224	0x3ceb950c	0.028757595
225	0xbd45b11b	-0.048264604
226	0xbd55973b	-0.052146178
227	0x3da246d3	0.07923665
228	0x3d4fdafa	0.05074594
229	0x3db06c83	0.08614447
230	0x3cae7480	0.021295786
231	0xbce832a8	-0.028344467
232	0xba5f8000	-0.00085258484
233	0xbda81660	-0.08207393
234	0x3dac7b8f	0.084220044
235	0x3bd1d380	0.0064033866
236	0x3d4b6372	0.049655385
237	0x3da84ea5	0.08218125
238	0x3cb5c2b4	0.022187568
239	0x3d951f1d	0.07281325
240	0xbd7d4ab1	-0.06183881
241	0xbd72052a	-0.059086956
242	0xbcc2589c	-0.023723893
243	0xbd68d5ac	-0.0568444
244	0x39cfb200	0.00039614737
245	0x3d0c8996	0.0343109
246	0x3cd6abe8	0.026205018
247	0xbd93309e	-0.07187007
248	0x3d893243	0.0669904
249	0x3c45e7a8	0.012079157
250	0xbdb8c64e	-0.090221986
251	0x3dadd78f	0.0848838
252	0x3ccaacf8	0.024740681
253	0x3c849114	0.01618246
254	0x3b5d4b60	0.003376685
255	0xbd34fd07	-0.04418662

bias f4 [14]
0	0x3d4e3ebe	0.050352804
1	0x3d0b6f9f	0.034041997
2	0xbd67616a	-0.056489386
3	0x3da0be6b	0.07848819
4	0x3cba695c	0.022755317
5	0xbcabcbe8	-0.020971254
6	0x3d3a9d23	0.045560014
7	0xbd09bd66	-0.03362789
8	0x3c621254	0.013798315
9	0xbd8b5110	-0.06802571
10	0xbc97ac3e	-0.018514749
11	0x3ca21d6a	0.019789416
12	0x3c1a631a	0.009423042
13	0xbdaf0f82	-0.0854788
